models/name_rnn_quick.pth (torch, 23980 bytes, 7 tensors)

embed.weight f4 [15, 16]
0.0 0.0 0.0 0.0 0.0 0.0 0.0 0.0
0.0 0.0 0.0 0.0 0.0 0.0 0.0 0.0
-0.72979116 -0.16247676 0.6288086 -0.50401664 -0.032629296 -0.63705575 -2.9134283 1.3793731
2.492462 -1.3053628 -0.28322443 -0.5919374 2.2930074 0.21473789 0.4237314 -2.1435168
0.9676825 -0.17959149 0.4716278 -0.37437436 1.2742324 1.5020956 -0.26518202 0.67624897
-1.1830891 0.87137246 -0.0060336255 -0.013079574 1.2756371 0.25296187 1.6863513 -1.2374343
-0.5437604 0.36840743 -1.1045347 0.9689269 1.276723 1.4805931 0.7632084 0.24982321
-0.37919575 -0.4493462 -0.95005095 0.79323435 0.24334972 1.3344367 -1.5692078 1.2933189
0.49190173 1.1597531 -3.4894688 0.25406665 -0.8788369 -0.22587575 -0.45336667 0.15323171
-1.1332326 -0.14781883 0.111596294 1.1031624 -0.146927 -0.2026877 0.32324257 0.11727243
3.1257274 0.23462434 -1.9413587 1.1943774 -0.44488433 1.5173376 -0.85306734 -0.010770122
-0.897244 0.3205217 -0.89568347 -0.5795823 -0.18063328 -0.010206755 0.8962457 0.18786277
0.48864022 -0.004173416 -0.5506907 -0.64912236 -1.3830426 1.2004294 -0.22432525 1.6671247
-0.4737434 0.24813148 0.868592 -0.62134874 0.46515745 -0.555632 -1.4081094 0.6636431
-0.26346174 -0.55691403 2.9946423 1.5401295 -2.557458 -0.4405201 -0.12869133 0.8930177
-0.8894142 0.21907346 -1.696873 -0.9740258 0.33720264 -0.9111233 0.61433566 -0.017196227
0.0057816952 -1.262214 0.49810955 0.8530938 0.34192765 1.1132588 1.5301064 0.07759468
0.33555016 -1.146841 -0.9409919 1.6876457 -0.35622904 0.7579729 -1.635862 -2.159202
1.020499 -0.5693433 -0.05069262 -0.014218669 0.52488285 2.9094133 0.6731885 0.7793667
0.36350355 -0.67573696 0.87419516 0.25307694 0.7767223 0.07996094 0.31193194 0.11273061
-0.062926054 -0.4612596 0.9579979 0.0329085 -0.23362099 -1.2922311 1.6774915 -1.4593356
-0.54671997 -0.995078 0.75462925 0.29273844 1.3105868 0.5998505 0.8108883 -0.43585506
0.62019634 -1.1284103 -0.8874655 -0.37080878 -2.2041755 0.13939317 0.52902746 -0.35502166
-1.4782759 -0.9020351 -1.4094965 1.2591721 0.3240482 -0.99627537 2.3746302 -0.44399837
0.20251404 -0.8937068 1.0571319 -0.8678548 -0.6431634 -0.31884828 -0.3902027 1.1492559
-0.035296775 0.5034441 -0.2245061 0.91769093 -0.5048868 1.3549415 0.9732734 1.3067768
0.5329894 -0.10467253 0.26688233 -0.40083852 0.07490659 -0.56343424 -1.8262377 -1.1763567
1.9383307 1.9927946 0.86778027 1.885824 0.6724293 1.4345385 0.1440884 -0.14138384
-1.4352385 -1.3021433 -1.9576569 1.7706773 1.0553617 -1.9321905 0.5878399 0.73473066
2.7069626 -0.5830787 -0.9976393 1.0105736 0.26117784 -1.0233808 -0.3037151 -1.9157219
00000000: 0000 0000 0000 0000 0000 0000 0000 0000
00000010: 0000 0000 0000 0000 0000 0000 0000 0000
00000020: 0000 0000 0000 0000 0000 0000 0000 0000
00000030: 0000 0000 0000 0000 0000 0000 0000 0000
00000040: 98d3 3abf 4f60 26be 9af9 203f 3c07 01bf
00000050: 4ca6 05bd 1616 23bf 9c75 3ac0 4c8f b03f
00000060: 7f84 1f40 2116 a7bf cb02 91be 3689 17bf
00000070: a2c0 1240 40e4 5b3e 52f3 d83e 612f 09c0
00000080: 0aba 773f d5e6 37be 3379 f13e ffad bfbe
00000090: 0c1a a33f ab44 c03f f0c5 87be a71e 2d3f
000000a0: 776f 97bf 4412 5f3f b8b5 c5bb b64b 56bc
000000b0: 1448 a33f 3884 813e 5cda d73f 3f64 9ebf
000000c0: e233 0bbf e69f bc3e 6561 8dbf 980b 783f
000000d0: a96b a33f 1384 bd3f a061 433f a8d1 7f3e
000000e0: f225 c2be b510 e6be 8a36 73bf 6811 4b3f
000000f0: ab30 793e d2ce aa3f cddb c8bf 798b a53f
00000100: 8bda fb3e ca72 943f 7553 5fc0 0615 823e
00000110: 75fb 60bf f94b 67be ad1f e8be c6e8 1c3e
00000120: c40d 91bf d25d 17be 998c e43d 6d34 8d3f
00000130: 0874 16be 5d8d 4fbe 0d80 a53e 872c f03d
00000140: eb0b 4840 5d41 703e 717e f8bf 5ce1 983f
00000150: e1c7 e3be 1e38 c23f 9f62 5abf 2a75 30bc
00000160: c8b1 65bf 6c1b a43e 834b 65bf 815f 14bf
00000170: eef7 38be 3c3a 27bc 5c70 653f 195f 403e
00000180: 0d2f fa3e 27c1 88bb 11fa 0cbf e22c 26bf
00000190: 8a07 b1bf aca7 993f 85b5 65be 5864 d53f
000001a0: 7f8e f2be 2e16 7e3e 0c5c 5e3f b610 1fbf
000001b0: 1e29 ee3e e63d 0ebf ee3c b4bf 84e4 293f
000001c0: 75e4 86be eb91 0ebf 38a8 3f40 f722 c53f
000001d0: 64ad 23c0 da8b e1be a9c7 03be cf9c 643f
000001e0: a6b0 63bf cb54 603e 2233 d9bf c159 79bf
000001f0: d3a5 ac3e 603f 69bf 1a45 1d3f 1adf 8cbc
00000200: 6074 bd3b 3a90 a1bf 3708 ff3e 5b64 5a3f
00000210: 2411 af3e 447f 8e3f 87da c33f f6e9 9e3d
00000220: 3bcd ab3e b0cb 92bf d8e4 70bf c604 d83f
00000230: a763 b6be 830a 423f ed63 d1bf 5e30 0ac0
00000240: b69f 823f 7cc0 11bf 11a3 4fbd 6cf5 68bc
00000250: b95e 063f d433 3a40 1556 2c3f 9384 473f
00000260: 231d ba3e 19fd 2cbf 41cb 5f3f 4d93 813e
00000270: 46d7 463f 90c2 a33d 8bb5 9f3e 4edf e63d
00000280: 60df 80bd 382a ecbe 5a3f 753f 10cb 063d
00000290: 573a 6fbe d467 a5bf 0bb8 d63f 82cb babf
000002a0: d7f5 0bbf 6fbd 7ebf 622f 413f d0e1 953e
000002b0: 4fc1 a73f cd8f 193f 6096 4f3f 6528 dfbe
000002c0: 30c5 1e3f c06f 90bf f030 63bf a6da bdbe
000002d0: 3611 0dc0 15bd 0e3e 586e 073f 66c5 b5be
000002e0: 2538 bdbf c6eb 66bf 626a b4bf 8d2c a13f
000002f0: a5e9 a53e e70b 7fbf f1f9 1740 c153 e3be
00000300: d75f 4f3e f8c9 64bf 1950 873f bb2b 5ebf
00000310: 5ba6 24bf 1540 a3be a6c8 c7be d11a 933f
00000320: 5a93 10bd b6e1 003f ede4 65be cbed 6a3f
00000330: 4340 01bf b96e ad3f 7228 793f 7644 a73f
00000340: fe71 083f 8d5e d6bd cda4 883e b53a cdbe
00000350: a068 993d 3a3d 10bf 28c2 e9bf db92 96bf
00000360: 381b f83f e513 ff3f d926 5e3f ae62 f13f
00000370: 5424 2c3f f59e b73f e98b 133e edc6 10be
00000380: e5b5 b7bf a2ac a6bf 8094 fabf 8ea5 e23f
00000390: 1816 873f 0552 f7bf ad7c 163f 4f17 3c3f
000003a0: e03e 2d40 a544 15bf 4a65 7fbf 7a5a 813f
000003b0: 1ab9 853e 24fe 82bf 8c80 9bbe 6036 f5bf

gru.weight_ih_l0 f4 [96, 16]
0.2301129 0.19358072 0.058844738 0.03338037 0.15063152 0.06994736 -0.009297714 0.030151939
0.055791777 0.037688546 0.06984265 0.18275088 0.07401471 0.19954717 0.113533996 -0.033931416
-0.13596427 -0.050430425 0.13127221 0.0016026325 -0.06638226 0.05433834 0.16682538 -0.055638753
-0.17001422 0.017505743 -0.052414015 0.17524098 -0.115053356 0.11609835 -0.018135346 0.20282175
-0.12582423 -0.09979675 -0.060878284 -0.114380084 -0.17516369 0.095592916 -0.12546396 0.14220068
-0.21413936 -0.091032214 0.009253304 -0.15715997 -0.20291442 -0.12688166 0.010358659 -0.033633217
0.056704745 0.09862101 0.081927106 0.14821643 0.105531156 -0.15189163 -0.0773158 -0.075114556
-0.120216824 0.18640542 -0.027444346 0.06159576 -0.13779666 -0.089963265 -0.08602971 -0.026293533
-0.06497943 -0.063257314 -0.09532569 -0.054474488 -0.14412487 -0.03305905 0.003450566 -0.19011353
0.040024668 0.11843244 0.024044042 0.1694293 -0.08142671 0.20094141 0.014310865 -0.047221255
-0.075107045 0.052558184 0.13132189 -0.11129656 0.11170123 -0.15377824 -0.06524842 -0.03341319
0.052415337 0.12424274 0.1621075 -0.006482657 -0.009379708 0.14092982 0.04406423 0.037327815
0.057976153 0.071710885 -0.010859029 0.08689389 0.08347578 0.20432977 -0.08104764 0.029765943
0.10750082 0.07419707 0.069773935 0.20666476 0.08537233 -0.03118669 0.090775475 0.104192756
0.08098416 -0.16390295 -0.04068281 -0.10110584 -0.07957719 0.084782235 -0.079846516 -0.14053723
-0.0207685 -0.021142665 -0.07672211 0.06053793 0.13218279 -0.03873329 0.083807066 0.04333294
0.08743048 0.11639823 0.11805364 0.13684726 0.06630476 -0.16102229 -0.05420088 0.13397424
0.09524221 -0.03689308 -0.07650314 0.022411432 0.04124957 -0.0010774913 0.05965454 -0.1657333
0.060613386 -0.11894026 0.0134693 -0.094876386 0.07791086 0.05320913 0.02233435 -0.027519874
-0.029323934 -0.18439685 0.035384018 0.035052758 -0.12340946 0.15985617 -0.18909357 0.16978578
-0.13465026 0.005713262 0.058069132 0.15350866 0.0579218 -0.06278229 0.1021924 0.058195956
0.11842051 -0.006915235 0.015611995 0.10275257 -0.15762933 0.033908088 -0.05412396 0.029060375
0.14160833 -0.1677375 -0.040877126 -0.18708813 -0.16319072 0.037120245 -0.16045937 -0.082141794
-0.065193 -0.14415698 -0.12654631 0.15619007 0.106213555 -0.04960039 -0.06733514 0.092672765
0.06560699 -0.14555287 0.051951364 -0.068051815 -0.042322695 0.053951647 0.15837422 -0.2088334
-0.0033021178 0.0651546 -0.113361575 0.12952209 -0.11540407 0.10512002 -0.0532967 0.06394448
0.15299575 0.053485796 -0.17036366 -0.11843654 0.19436626 0.040782418 0.11818011 0.09343012
-0.14580084 -0.1516879 0.1089078 0.1256692 -0.06392548 -0.16147244 -0.02010859 0.090383254
-0.0022363712 -0.02409915 -0.1431306 -0.0029562037 0.20507492 -0.016913958 -0.104075156 -0.055593662
-0.06892653 0.040429737 0.11305069 0.21935748 -0.14055869 0.16346487 -0.1643459 0.15487227
0.018603506 -0.009145773 -0.13071401 0.093876444 0.19352858 0.15230125 -0.14055474 0.028985256
0.009986115 -0.047363464 -0.11776058 -0.16906866 -0.1274219 -0.05539071 0.093065254 0.15726769
00000000: b7a2 6b3e 063a 463e 2e07 713d dbb9 083d
00000010: 263f 1a3e 9040 8f3d 7055 18bc 3301 f73c
00000020: eb85 643d 4e5f 1a3d aa09 8f3d 0c23 3b3e
00000030: 0695 973d 1856 4c3e 8384 e83d abfb 0abd
00000040: 383a 0bbe 2290 4ebd 396c 063e 6c0f d23a
00000050: 6cf3 87bd e191 5e3d 46d4 2a3e 76e5 63bd
00000060: 3518 2ebe 3468 8f3c 14b0 56bd 5f72 333e
00000070: 18a1 ebbd f9c4 ed3d 9490 94bc 81b0 4f3e
00000080: 11d8 00be 3d62 ccbd 825b 79bd 1b40 eabd
00000090: 1c5e 33be 38c6 c33d a079 00be 0e9d 113e
000000a0: 5947 5bbe 196f babd 2c9b 173c 8bee 20be
000000b0: ccc8 4fbe 44ed 01be 5db7 293c fcc2 09bd
000000c0: 3c43 683d d0f9 c93d 66c9 a73d 0cc6 173e
000000d0: b820 d83d 7b89 1bbe bf57 9ebd a9d5 99bd
000000e0: 3d34 f6bd 10e1 3e3e f7d2 e0bc d64b 7c3d
000000f0: 911a 0dbe a93e b8bd 5830 b0bd 8965 d7bc
00000100: ef13 85bd 0d8d 81bd 1e3a c3bd a420 5fbd
00000110: 7895 13be ed68 07bd e422 623b 1fad 42be
00000120: e8f0 233d b58c f23d 03f8 c43c e07e 2d3e
00000130: 0cc3 a6bd 96c3 4d3e 1e78 6a3c 136b 41bd
00000140: b9d1 99bd 4047 573d 3f79 063e 73ef e3bd
00000150: 9dc3 e43d 0b78 1dbe f7a0 85bd 45dc 08bd
00000160: 77b1 563d fa72 fe3d 82ff 253e 786c d4bb
00000170: 59ad 19bc e84f 103e b27c 343d 0de5 183d
00000180: 6778 6d3d 28dd 923d 12ea 31bc 6cf5 b13d
00000190: 5af5 aa3d d33b 513e 4efc a5bd b5d7 f33c
000001a0: 6429 dc3d a2f4 973d a3e5 8e3d ed9f 533e
000001b0: b0d7 ae3d 3b7b ffbc 7ee8 b93d 0363 d53d
000001c0: 06db a53d 2dd6 27be 05a3 26bd 9410 cfbd
000001d0: 5ef9 a2bd 4fa2 ad3d 9286 a3bd fee8 0fbe
000001e0: b422 aabc 6233 adbc 7b20 9dbd 9ff6 773d
000001f0: ed5a 073e cca6 1ebd 0aa3 ab3d e27d 313d
00000200: c00e b33d 3262 ee3d 1bc6 f13d b021 0c3e
00000210: caca 873d 07e3 24be be01 5ebd 8b30 093e
00000220: 590e c33d 331d 17bd aead 9cbd 2e98 b73c
00000230: 4ff5 283d 9c3a 8dba 5258 743d fdb5 29be
00000240: be45 783d f396 f3bd 57ae 5c3c 8d4e c2bd
00000250: bb8f 9f3d d1f1 593d 87f6 b63c 5c71 e1bc
00000260: bf38 f0bc 87d2 3cbe d5ee 103d 7b93 0f3d
00000270: 19be fcbd 56b1 233e bfa1 41be 53dc 2d3e
00000280: c2e1 09be 5136 bb3b e6d9 6d3d 6031 1d3e
00000290: 693f 6d3d 0094 80bd 404a d13d e25e 6e3d
000002a0: 7486 f23d 3299 e2bb 74c9 7f3c f06f d23d
000002b0: 9569 21be 35e3 0a3d 16b1 5dbd 0610 ee3c
000002c0: c601 113e 61c3 2bbe c66e 27bd 0894 3fbe
000002d0: 781b 27be 660b 183d 764f 24be f539 a8bd
000002e0: e883 85bd e39d 13be 5b95 01be 4af0 1f3e
000002f0: 7e86 d93d c729 4bbd 02e7 89bd 38cb bd3d
00000300: f55c 863d d00b 15be f4ca 543d c05e 8bbd
00000310: 905a 2dbd 67fc 5c3d da2c 223e 6cd8 55be
00000320: 5868 58bb c66f 853d 1d2a e8bd 70a1 043e
00000330: f858 ecbd 2a49 d73d a44d 5abd 53f5 823d
00000340: ebaa 1c3e ec13 5b3d d073 2ebe db8e f2bd
00000350: f307 473e 770b 273d 6a08 f23d 4a58 bf3d
00000360: d14c 15be 1354 1bbe 0d0b df3d 6daf 003e
00000370: 5deb 82bd 0859 25be c5ba a4bc db1a b93d
00000380: 1590 12bb 956b c5bc d490 12be debc 41bb
00000390: 29ff 513e 248f 8abc 5b25 d5bd 2eb6 63bd
000003a0: 5a29 8dbd a799 253d 1f87 e73d 3f9f 603e
000003b0: 9eee 0fbe 5663 273e 4b4a 28be d696 1e3e
000003c0: 6166 983c 27d8 15bc e5d9 05be 4b42 c03d
000003d0: 5b2c 463e dcf4 1b3e 95ed 0fbe 7d72 ed3c
000003e0: cd9c 233c 3100 42bd 752c f1bd 5620 2dbe
000003f0: e37a 02be 5ee1 62bd ff98 be3d c80a 213e

gru.weight_hh_l0 f4 [96, 32]
-0.023175277 0.020308644 -0.004178108 -0.13693857 0.15168445 0.14788124 -0.06739415 -0.044377193
0.00759478 -0.16761878 -0.07054705 -0.093499266 -0.0440927 0.11657297 0.15249221 0.08323728
-0.06337855 -0.018819576 0.124201246 -0.039345 -0.17766799 0.18551216 -0.1635756 0.06333253
0.13661732 0.05615471 -0.10661213 0.074703 0.13975774 0.04716914 -0.06341142 0.029829582
-0.019888481 -0.09824562 -0.020560581 -0.026979964 -0.10900201 -0.095054395 -0.061815903 0.024333362
0.029158268 0.019110985 -0.1480033 0.13239484 0.062135167 -0.14053203 0.00035643403 0.19394158
-0.06476198 0.09759482 0.091362014 -0.038151592 -0.021110207 0.055735413 -0.02847409 -0.14429449
0.10890353 0.05238871 -0.1098195 0.084755205 -0.023124438 0.09580203 0.10796775 0.0015003742
0.08074297 0.109360255 0.1740035 0.04307046 0.04996737 0.057369404 -0.10403914 0.06573361
0.12674399 0.1058027 -0.12899184 -0.10204084 -0.1271357 -0.20553291 -0.0790333 -0.06991277
0.014393829 -0.042501546 -0.05661064 -0.04333362 0.12633578 0.011238318 -0.0801245 -0.17403199
-0.023862768 0.11877267 -0.0720665 0.16854838 -0.0006961246 -0.07076133 -0.13664332 0.07967951
-0.087620035 0.18971567 -0.15118125 -0.08792974 0.12965022 0.12497057 -0.084024794 -0.0045594657
-0.13711107 -0.1735475 -0.0626495 -0.009468693 0.03218613 -0.14317076 0.15313973 -0.017369118
0.031643234 0.03918499 0.14946851 -0.15957014 0.028598785 -0.18480586 -0.026092617 -0.17328128
0.1145932 -0.08829378 0.020582074 -0.044061467 0.15135908 -0.19765261 -0.024365215 0.16469595
-0.13112144 0.017062223 -0.16466275 0.10154847 -0.14138827 -0.118892446 0.07280124 0.16812934
-0.113138445 -0.16549648 0.092974894 0.06369153 0.16119604 0.14024283 0.12949301 -0.015950728
0.05684509 0.15336458 -0.090331085 0.13061948 -9.954255e-05 -0.023414815 -0.1085606 -0.102364145
-0.047611654 0.15451996 0.085300826 -0.1372018 0.060155157 -0.20805334 -0.041871466 -0.06782411
0.06591762 0.13143447 -0.11877815 -0.0713423 0.10039897 -0.17502457 -0.031222751 0.07698652
-0.13272174 0.009298292 0.064840876 -0.16056715 -0.044870716 -0.06972355 -0.045829855 0.07924938
-0.03837409 0.0012363894 -0.0667538 0.06559848 -0.02891898 0.0019231064 -0.17510535 -0.071886934
-0.113220684 0.14441109 0.024372097 0.13969079 -0.02594685 -0.07493252 0.143193 -0.0067385593
-0.14448844 0.047450785 0.1890664 0.16595565 0.16293879 -0.049874008 -0.07345506 -0.15796924
-0.13768023 -0.06467818 0.13684312 -0.18798853 -0.08920388 -0.1296469 0.0417742 0.12301363
0.025797755 0.117097646 0.14324288 -0.12293469 -0.008405713 -0.0651995 0.1644393 -0.0071376385
0.09711436 -0.10594484 0.17165606 -0.15653026 -0.046527814 -0.14787415 0.16879895 0.030305965
0.10594759 0.15976527 -0.052767888 0.025219917 0.025342532 -0.099873126 0.037768178 0.07360919
0.059980154 -0.0041598934 0.12926872 -0.14947209 -0.093678385 0.13334367 0.05892162 -0.121871226
-0.021444583 -0.058393307 0.07015286 -0.048499115 0.0010728496 0.029758554 0.10397815 0.027804516
-0.056021098 -0.06951765 0.08949409 0.051483523 0.051067483 -0.062251955 -0.16150679 0.10563786
00000000: 14da bdbc 505e a63c 83e8 88bb a039 0cbe
00000010: 2b53 1b3e 2e6e 173e f205 8abd dcc4 35bd
00000020: a2dd f83b 42a4 2bbe f97a 90bd 8b7c bfbd
00000030: 8c9a 34bd cfbd ee3d eb26 1c3e 4f78 aa3d
00000040: 9dcc 81bd 832b 9abc 395d fe3d 3928 21bd
00000050: 99ee 35be e6f6 3d3e 5d80 27be 7cb4 813d
00000060: 69e5 0b3e 7b02 663d 7657 dabd e3fd 983d
00000070: a71c 0f3e 6e34 413d d9dd 81bd 2b5d f43c
00000080: 2bed a2bc 0035 c9bd aa6e a8bc 1605 ddbc
00000090: 723c dfbd e1ab c2bd ac32 7dbd c256 c73c
000000a0: 52dd ee3c a48e 9c3c 2d8e 17be 8392 073e
000000b0: 7281 7e3d a1e7 0fbe c4df ba39 9f98 463e
000000c0: eea1 84bd cbdf c73d 021c bb3d d844 1cbd
000000d0: 50ef acbc d14a 643d 7f42 e9bc efc1 13be
000000e0: d008 df3d 8b95 563d 0ce9 e0bd 2394 ad3d
000000f0: 766f bdbc db33 c43d 321e dd3d 34a8 c43a
00000100: 925c a53d 45f8 df3d f92d 323e a76a 303d
00000110: 96aa 4c3d 2efc 6a3d 7912 d5bd 589f 863d
00000120: 2dc9 013e 16af d83d 7016 04be cafa d0bd
00000130: dc2f 02be 3877 52be 36dc a1bd 6d2e 8fbd
00000140: 18d4 6b3c 1a16 2ebd 8fe0 67bd 987e 31bd
00000150: 2b5e 013e ec20 383c 5018 a4bd 7135 32be
00000160: da7b c3bc 163f f33d 9a97 93bd f297 2c3e
00000170: 227c 36ba 51eb 90bd 3aec 0bbe 032f a33d
00000180: 2272 b3bd d344 423e 42cf 1abe 8214 b4bd
00000190: 07c3 043e 92f0 ff3d 3115 acbd 9267 95bb
000001a0: d866 0cbe 70b6 31be 624e 80bd 9422 1bbc
000001b0: 9ad5 033d 5b9b 12be a9d0 1c3e ae49 8ebc
000001c0: 569c 013d 7180 203d 460e 193e 5b66 23be
000001d0: 0048 ea3c bf3d 3dbe 2fc0 d5bc a670 31be
000001e0: d7af ea3d 5fd3 b4bd bd9b a83c cc79 34bd
000001f0: e0fd 1a3e 7265 4abe 8f99 c7bc 0ea6 283e
00000200: b344 06be 13c6 8b3c 5a9d 28be a5f8 cf3d
00000210: 16c8 10be e27d f3bd d118 953d 192a 2c3e
00000220: 21b5 e7bd e977 29be 9f69 be3d b470 823d
00000230: 9310 253e d19b 0f3e d199 043e 1aab 82bc
00000240: 66d6 683d 9b0b 1d3e 81ff b8bd 1dc1 053e
00000250: 80c1 d0b8 6dd0 bfbc 0555 debd 4ba4 d1bd
00000260: 7004 43bd 7b3a 1e3e 33b2 ae3d a17e 0cbe
00000270: 4165 763d ef0b 55be 6a81 2bbd 5ee7 8abd
00000280: d1ff 863d c296 063e f541 f3bd e91b 92bd
00000290: fa9d cd3d a439 33be dbc6 ffbc 1cab 9d3d
000002a0: 35e8 07be dd57 183c 4bcb 843d b76b 24be
000002b0: 5bca 37bd 38cb 8ebd 16b8 3bbd 804d a23d
000002c0: 262e 1dbd 580e a23a 37b6 88bd 7f58 863d
000002d0: 7fe7 ecbc be10 fc3a d14e 33be 7539 93bd
000002e0: 3fe0 e7bd 80e0 133e fea7 c73c 1a0b 0f3e
000002f0: 7d8e d4bc 3976 99bd 30a1 123e 22cf dcbb
00000300: c7f4 13be c15b 423d 9f9a 413e 47f0 293e
00000310: 6dd9 263e b048 4cbd 9b6f 96bd b0c2 21be
00000320: 0cfc 0cbe fe75 84bd 9a20 0c3e 1180 40be
00000330: 86b0 b6bd 28c2 04be 6c1b 2b3d 92ee fb3d
00000340: d055 d33c e4d0 ef3d 43ae 123e 2fc5 fbbd
00000350: 1eb8 09bc 5187 85bd c762 283e dae2 e9bb
00000360: e5e3 c63d 9cf9 d8bd 9bc6 2f3e 7849 20be
00000370: f393 3ebd 526c 17be a2d9 2c3e 3744 f83c
00000380: 0dfb d83d 8299 233e 2423 58bd 009a ce3c
00000390: 249b cf3c 488a ccbd ceb2 1a3d 6ac0 963d
000003a0: c0ad 753d b74f 88bb 055f 043e 360f 19be
000003b0: 74da bfbd 3e8b 083e cc57 713d 9f97 f9bd
000003c0: 8dac afbc d22d 6fbd 4dac 8f3d 02a7 46bd
000003d0: dc9e 8c3a 36c8 f33c 7ff2 d43d 4cc6 e33c
000003e0: 6176 65bd 455f 8ebd ad48 b73d 63e0 523d
000003f0: 232c 513d e8fb 7ebd 0962 25be aa58 d83d

gru.bias_ih_l0 f4 [96]
-0.15702617 -0.15082783 0.05857395 -0.18001358 0.033203796 -0.06469867 0.108313866 -0.119354315
0.14528193 -0.14752299 0.09316072 0.1322472 -0.08283849 -0.1415833 -0.09830019 0.0877227
-0.032669377 0.13256504 -0.16120477 0.13653927 0.17851876 0.048332773 -0.15335277 -0.18071185
0.16040893 -0.1582551 0.091166995 0.11270541 -0.080407046 0.06529453 -0.12869033 0.10267443
0.015282016 -0.11615875 -0.12059938 0.15869603 0.03633791 -0.17539723 0.062969446 0.042530045
-0.00095039373 -0.0037245275 0.089541234 0.105783165 0.059052486 -0.07519586 0.06543747 0.04788524
-0.13520834 -0.018643906 0.089352645 0.00026680535 0.03456127 0.100166716 -0.18108428 -0.03218002
0.055132158 0.151787 0.12126876 -0.14269622 0.09946923 0.15492278 -0.043304462 0.009284226
0.12375441 0.0556995 -0.1618419 0.042209275 0.15315902 0.11048767 -0.057524517 0.036814358
-0.11697096 0.039355565 0.15277287 0.008663605 -0.07934675 0.008924857 -0.02867503 0.13012616
-0.07416667 -0.104892254 -0.051367335 0.16822137 -0.11159077 0.116554506 0.10494071 -0.04264276
0.13306926 -0.06617903 -0.17389853 0.17002724 0.0070933364 -0.09709184 0.035597954 -0.12455859
00000000: 78cb 20be 9c72 1abe 3deb 6f3d 7b55 38be
00000010: b400 083d bc80 84bd a9d3 dd3d 0970 f4bd
00000020: c9c4 143e 4410 17be 0ccb be3d cf6b 073e
00000030: 3aa7 a9bd 36fb 10be 9c51 c9bd f5a7 b33d
00000040: 53d0 05bd 21bf 073e dd12 25be f3d0 0b3e
00000050: 9fcd 363e 96f8 453d 8208 1dbe 870c 39be
00000060: 3d42 243e a00d 22be c3b5 ba3d 18d2 e63d
00000070: 73ac a4bd 23b9 853d 66c7 03be f946 d23d
00000080: 6c61 7a3c a4e4 edbd cffc f6bd 3681 223e
00000090: 0fd7 143d 559b 33be 20f6 803d fc33 2e3d
000000a0: d823 79ba 3417 74bb 6561 b73d d8a4 d83d
000000b0: 05e1 713d 4900 9abd 1504 863d 5023 443d
000000c0: 0e74 0abe 1bbb 98bc 85fe b63d 02e2 8b39
000000d0: 1e90 0d3d 3524 cd3d 286e 39be 32cf 03bd
000000e0: 42d2 613d 0d6e 1b3e c15b f83d f51e 12be
000000f0: 86b6 cb3d 14a4 1e3e 0560 31bd de1c 183c
00000100: f472 fd3d 2925 643d e2b9 25be a2e3 2c3d
00000110: b8d5 1c3e 5c47 e23d d49e 6bbd a7ca 163d
00000120: 788e efbd 4d33 213d 7e70 1c3e cbf1 0d3c
00000130: 8d80 a2bd 9039 123c e6e7 eabc cb3f 053e
00000140: b2e4 97bd c0d1 d6bd 8e66 52bd 3942 2c3e
00000150: b489 e4bd 21b4 ee3d 28eb d63d 2daa 2ebd
00000160: 4f43 083e df88 87bd 7512 32be 9f1b 2e3e
00000170: 386f e83b 16d8 c6bd 29cf 113d 9318 ffbd

gru.bias_hh_l0 f4 [96]
-0.14259301 0.011254983 0.03289952 0.12516007 0.007380908 -0.120193 0.13291712 0.13985279
0.036588635 0.06952977 0.10306333 -0.07200304 0.08196734 -0.12595797 -0.04044191 0.090438135
-0.16082509 0.015127631 -0.07730767 0.10791715 -0.14307328 -0.13428551 -0.10863681 -0.13599542
0.1819876 -0.18614079 0.043759786 -0.013770176 0.036545604 0.12170396 0.1346912 0.13039374
0.11692552 0.03689072 0.07271857 -0.019841863 -0.11735224 -0.13361828 -0.08375292 0.11498908
-0.014123511 0.09874291 -0.14847815 -0.15247484 -0.10898879 0.16720667 -0.19861539 0.013779274
-0.02688592 -0.19060095 0.16556405 0.08752448 -0.040397346 0.12804951 0.108874194 -0.06132493
-0.088908955 -0.16155799 0.043451045 0.081834495 0.050491933 -0.014859664 -0.13707604 0.17915964
0.052641146 -0.082921505 -0.1658103 -0.120952845 0.06635168 0.110730514 -0.12325646 -0.04422532
0.17850064 -0.0269485 0.0055885706 0.081225425 -0.04511268 0.029313534 -0.0027945787 0.03149124
-0.07340129 0.02644557 -0.1117314 -0.13490772 0.037279148 0.105719805 -0.16603588 0.08805238
0.14089158 0.05257595 -0.13482311 -0.0348264 -0.1102372 -0.06630369 0.030122448 0.16925637
00000000: e703 12be d266 383c a6c1 063d f629 003e
00000010: 8bdb f13b bf27 f6bd 6d1b 083e 9235 0f3e
00000020: f7dd 153d a065 8e3d de12 d33d 5476 93bd
00000030: 7ede a73d 20fb 00be 6ba6 25bd a137 b93d
00000040: 55af 24be e2d9 773c 7c53 9ebd ab03 dd3d
00000050: cd81 12be 2482 09be fa7c debd 6242 0bbe
00000060: f55a 3a3e b19b 3ebe 763d 333d 4e9c 61bc
00000070: d8b0 153d ed3f f93d 7dec 093e f085 053e
00000080: a676 ef3d b91a 173d 79ed 943d 678b a2bc
00000090: 5f56 f0bd 3bd3 08be a786 abbd 657f eb3d
000000a0: 4c66 67bc b939 ca3d a80a 18be 5d22 1cbe
000000b0: 8435 dfbd 3a38 2b3e d561 4bbe 77c2 613c
000000c0: dc3f dcbc e52c 43be 9f89 293e 0940 b33d
000000d0: b077 25bd 691f 033e 6ff9 de3d da2f 7bbd
000000e0: e615 b6bd 756f 25be b9f9 313d d898 a73d
000000f0: a1d0 4e3d f375 73bc a95d 0cbe a075 373e
00000100: 3e9e 573d c0d2 a9bd 2dca 29be 20b6 f7bd
00000110: 64e3 873d aec6 e23d e26d fcbd 9c25 35bd
00000120: dfc8 363e 1ac3 dcbc 5420 b73b 8459 a63d
00000130: 13c8 38bd f022 f03c 4025 37bb f5fc 003d
00000140: 6a53 96bd 61a4 d83c 6fd3 e4bd 4025 0abe
00000150: 05b2 183d a083 d83d 4f05 2abe ce54 b43d
00000160: e245 103e e159 573d 120f 0abe 21a6 0ebd
00000170: 0bc4 e1bd 3bca 87bd 5ac3 f63c 8b51 2d3e

fc.weight f4 [2, 32]
0.12402279 -0.0428815 -0.029532844 0.07739452 0.12646987 -0.17696501 0.014405075 0.15371524
0.024040084 -0.110075094 -0.10218352 -0.14902852 0.14424387 -0.06793123 0.14001927 -0.07666217
0.07798282 0.022436896 0.14536335 0.11877156 0.121687144 -0.14508356 -0.09142911 0.015308392
0.17429927 0.092001885 -0.045496102 0.110841446 0.1410964 0.105278224 0.11568243 0.033216424
0.09706568 -0.14376764 0.13759755 -0.01854335 0.16895865 0.047912408 0.014101669 0.025483353
0.14426059 -0.15254419 0.12071049 -0.13896248 0.09258859 -0.05622026 -0.15066667 -0.033397328
-0.0134972185 -0.1617577 0.11402131 -0.099459186 0.042529043 0.09434231 0.20189331 0.15098855
-0.16130513 0.016269706 0.16859537 -0.07773468 -0.12184621 -0.01790622 -0.064687006 -0.10825998
00000000: a9ff fd3d 83a4 2fbd ddee f1bc 0581 9e3d
00000010: 5181 013e 5136 35be 4403 6c3c 8767 1d3e
00000020: b6ef c43c 0d6f e1bd 9845 d1bd ef9a 18be
00000030: aab4 133e 871f 8bbd 3661 0f3e 0e01 9dbd
00000040: 75b5 9f3d 95cd b73c 21da 143e 813e f33d
00000050: 1c37 f93d c990 14be 2f3f bbbd 0dd0 7a3c
00000060: 827b 323e 7c6b bc3d 1f5a 3abd d700 e33d
00000070: 937b 103e 1c9c d73d e9ea ec3d f20d 083d
00000080: 5fca c63d d337 13be 5fe6 0c3e 39e8 97bc
00000090: 7f03 2d3e cd3f 443d b00a 673c 77c2 d03c
000000a0: 0cb9 133e 8b34 1cbe 1037 f73d 2e4c 0ebe
000000b0: 169f bd3d 3747 66bd 5d48 1abe a3cb 08bd
000000c0: 7023 5dbc cfa3 25be 0184 e93d 42b1 cbbd
000000d0: ef32 2e3d 8b36 c13d 1fbd 4e3e be9c 1a3e
000000e0: 2c2d 25be 0c48 853c 44a4 2c3e 5c33 9fbd
000000f0: 818a f9bd 11b0 92bc 9f7a 84bd 69b7 ddbd

fc.bias f4 [2]
-0.08020901 0.068925776
00000000: 9f44 a4bd f528 8d3d
