models/name_rnn_quick.pth (torch, 23980 bytes, 7 tensors)

embed.weight f4 [15, 16]
00000000: 0000 0000 0000 0000 0000 0000 0000 0000
00000010: 0000 0000 0000 0000 0000 0000 0000 0000
00000020: 0000 0000 0000 0000 0000 0000 0000 0000
00000030: 0000 0000 0000 0000 0000 0000 0000 0000
00000040: d1be 043f bbb7 93be f945 093f 7f7d c53f
00000050: b773 81bd 10c1 363f b647 37bf d5fb 67bf
00000060: ec07 ef3f 54dc 233f 1b91 b0bd 9e78 6bbf
00000070: 8e24 32bd ebbc 6bbf e0dd 8e3f ab04 2cbe
00000080: e538 d7bf e529 11be 88f1 c73d a546 8c3e
00000090: a2eb 7d3e 509a e73e 10cb a4be a903 bd3e
000000a0: 7b50 dc3f 5335 86be f9df d13d 17b5 733f
000000b0: d668 853f 8f02 81bf 8845 b6bf e441 433f
000000c0: 9b07 a93e c6ae a33f 2af5 c23f 4733 fabf
000000d0: bcea bc3e 161f 383f 1d19 7c3f 55e3 16be
000000e0: 0664 183f 6eca 8ebf 6644 dfbf 5aea 96bc
000000f0: d76e 7abf 912c 8d3f 4fa7 77bf 549c 1cbe
00000100: 2e2b 12bf f4c3 133f 048f ebbe 5a7c 51bf
00000110: abd9 59be 2ffb 02bf be94 b23f 8045 30bd
00000120: 4cac 5d3f d6fe d8be 1a9f 853f e77a 0b3f
00000130: 1dbf e83f aa98 2abf ffc5 b13e 0712 1e3f
00000140: f6ac 8f3e 8b4c 40be 7e0f c1bf a5a4 7fbd
00000150: 6ccc dc3f b1fd 953e b664 21bf 171b ab3f
00000160: 6807 cc3f c706 11c0 001e b13f d127 9e3e
00000170: 72e7 71bf db0b 7c3d d704 b3be 4aaa 24bf
00000180: 3fd8 1c3f 71ce ad3e 686d 0dbf 76df c43c
00000190: e3ce 653f dc02 e03f 3e7b 59bf 8ed0 b13f
000001a0: bd34 29bf fb94 1abf 68f4 a9be 15b1 923f
000001b0: 0253 ed3f 51cb e23e d34e aebe acf8 94be
000001c0: 75da 43be 3da8 9bbe 3849 8d3d e919 613f
000001d0: 4ca4 033f 388e a5be 7ed1 b4bd 37ba e73f
000001e0: 614d 8cbf ffce aabf 6558 b9be cd52 a83e
000001f0: ffed 31bf ff44 6ebf ae53 65be a2d5 70bc
00000200: 145f 6bbf add2 dfbd 2843 1fbd d604 983e
00000210: ce86 bd3f 5a8c 3d40 9cce a83d c3d0 633f
00000220: 40ba 043f 67a1 22c0 8479 92bf b582 a33e
00000230: f425 143f 2e0b 60bf b5d0 6b3f b08c 51bf
00000240: 975b 75bf abc8 af3e 3ccf 6ebf 07d5 9abe
00000250: 887a 38c0 367c 1dbe c43a 25bf 606f 4bbe
00000260: cd0b afbf d9df cf3f a6dc 903f fbbd 73bf
00000270: 999e d8bf ccea a0bf 9b83 86be 3a40 943f
00000280: 1ca1 c3be 968f 643e 06ec 983f 80b6 aebf
00000290: 980b 353f cdfc 553f f1cb 1ac0 201d ddbf
000002a0: ce6c 3cbe 8ca2 bf3e 9e92 3bbe ea43 e53e
000002b0: 367c e43f ddf2 f3be 0a73 87bc bdd1 6c3f
000002c0: 4fe1 673f 7770 bbbf 241d e53f cb83 db3f
000002d0: 622b de3f ff19 edbf 97d4 b63f a752 00c0
000002e0: 6072 6c3f 7845 93bf b43e c03e dc1c dd3e
000002f0: f422 8ebf ee36 b43f bb5c b83f ea14 5140
00000300: eb55 3d3f 9454 a1bf 26ab b73f 5744 683f
00000310: dad9 e23e 0cc0 bfbf 2e34 15bf 7aad e3be
00000320: 9288 5c3f 5f3f 7dbf 29a5 733e b2f0 adbf
00000330: c10d 9dbf 407d 51bf ca36 acbf cc31 d3be
00000340: 9dab ee3f 2293 b23f 638b 97bf 2573 093f
00000350: 933d 263f 30fc f83f 8d39 873e c901 763f
00000360: 0fbf 9f3f 0c51 92bd 4b1a 823f 728d 11be
00000370: d1d0 803e 9304 093f d00e aa3d 0402 263f
00000380: b65d fe3f 870e 333f e60e ffbf 75e2 623f
00000390: 800b b53f 8b3d 35bf 8645 db3d e56b 27be
000003a0: 8b98 71bf 9582 85bf 4a85 14c0 0da3 7dbf
000003b0: 7a57 23bf 31dd ccbf 55ac a13e f894 1f40
0.0 0.0 0.0 0.0 0.0 0.0 0.0 0.0
0.0 0.0 0.0 0.0 0.0 0.0 0.0 0.0
0.5185366 -0.28851113 0.53622395 1.5428923 -0.06320899 0.7138834 -0.715938 -0.9061864
1.8674293 0.6400807 -0.08621427 -0.9198092 -0.043491893 -0.9208514 1.1161461 -0.16798656
-1.6814238 -0.14176138 0.09762865 0.27397648 0.24796918 0.4523492 -0.32186174 0.36916855
1.7212061 -0.26212558 0.102477975 0.95198196 1.0422618 -1.0078906 -1.4239969 0.76272416
0.33013615 1.2787712 1.5231068 -1.9546899 0.36897838 0.71922433 0.9847582 -0.14735158
0.59527624 -1.1155527 -1.7442749 -0.018422294 -0.9782538 1.1029226 -0.9673967 -0.1529401
-0.57097137 0.57720876 -0.4600755 -0.8183037 -0.2127444 -0.51164526 1.3951643 -0.04303503
0.8659103 -0.42381924 1.0439179 0.5448441 1.8183323 -0.66639197 0.34721372 0.6174626
0.28061646 -0.18779199 -1.5082853 -0.062412877 1.7249885 0.29295114 -0.630443 1.3367642
1.593976 -2.2660387 1.383728 0.30889753 -0.9449378 0.061534744 -0.3496463 -0.6432234
0.61267465 0.33946565 -0.55245066 0.024032336 0.8976881 1.7500873 -0.8495368 1.3891771
-0.660961 -0.60383576 -0.3319428 1.1460291 1.8540957 0.44295743 -0.34044513 -0.29095972
-0.19126303 -0.30401793 0.06898731 0.8793016 0.5142257 -0.32335067 -0.0882902 1.8103703
-1.0961114 -1.334442 -0.36200252 0.32875672 -0.6950378 -0.9307403 -0.22395203 -0.0146993715
-0.9194195 -0.10928855 -0.038882405 0.2969119 1.4806764 2.9616914 0.082425326 0.8899042
0.51846695 -2.5411012 -1.1443334 0.3193566 0.5787041 -0.8751706 0.92115337 -0.818553
-0.9584288 0.34332785 -0.93284965 -0.30240652 -2.8824787 -0.15379414 -0.64542794 -0.19866705
-1.3675476 1.6240188 1.1317337 -0.9521176 -1.69234 -1.2571654 -0.26272282 1.15821
-0.38208854 0.22320399 1.1947029 -1.3649445 0.70720816 0.8358887 -2.4186976 -1.7274513
-0.1840088 0.374287 -0.18317649 0.44778377 1.7850406 -0.47646227 -0.016534347 0.92507535
0.9057817 -1.4643697 1.7899518 1.7149595 1.7356989 -1.8523558 1.4283627 -2.0050447
0.9236202 -1.1505575 0.3754784 0.4318608 -1.1104417 1.4079263 1.4403299 3.2669015
0.73959225 -1.2603936 1.4349105 0.9072928 0.44306833 -1.4980483 -0.58282745 -0.4446829
0.8614589 -0.9892482 0.23793472 -1.3589079 -1.2269822 -0.8183174 -1.345422 -0.4124893
1.8646122 1.3951151 -1.1839412 0.5369132 0.64937705 1.9451962 0.26411095 0.96096474
1.2480181 -0.07144365 1.0164274 -0.14214113 0.25159314 0.53522605 0.083036065 0.64846826
1.9872348 0.6994404 -1.9926422 0.88626796 1.4144135 -0.7079703 0.1070662 -0.16349752
-0.9437339 -1.0430475 -2.3206353 -0.9907692 -0.63805354 -1.6005002 0.3157679 2.4934673

gru.weight_ih_l0 f4 [96, 16]
00000000: 7dfc 6abd ff25 223e 3e8e cbbd 9e4f 19be
00000010: 93e0 4fbd 25d3 923d 7166 683e 7333 8fbc
00000020: 9908 383d fa81 09bd 0b84 773d 0ce4 193e
00000030: dbde 8cbd 6303 2d3d 6529 243d f4d0 f7bd
00000040: 8af6 1fbe e32c 083e 282e e63d 5abb 3b3d
00000050: 0c5d fe3b 96af ce3d 0638 183e 6850 103c
00000060: 7a53 21be 76df 913d dbb9 79bd 8275 61bd
00000070: 8817 c23c 75d9 dd3d 1857 f83d c72b 13bc
00000080: 6100 f3bd bf3e 183e 9a47 15bd fb6d 043e
00000090: 0d26 113e 5c1b 1d3e 1579 043e a511 683d
000000a0: fbff e3bd f3d9 95bc e8e1 03be 3c55 2d3e
000000b0: 90e2 1bbe 7c40 333e 1510 25be a704 3f3e
000000c0: 87cf 1f3e 7206 e13d b271 9abd a284 d9bd
000000d0: 3400 c53d 1478 2a3e 9ac5 9bbd dd39 083d
000000e0: a317 07be 40d7 10be 3b81 f03d f4a0 a43c
000000f0: 7826 073d 7a8e 93bc 1c6c a8bd 33de 053e
00000100: 78b1 d03d 94b9 48be c1ac d53b 066c 293d
00000110: 1b68 1abe f71f 3fbe 019d aabd bc68 8f3d
00000120: 0524 21bc f491 d23b 1473 d73d f1aa 28be
00000130: 9ee7 fd3c 87e7 743d 0c57 bfbd b688 99bc
00000140: f78a b3bd 5fd2 db3d 35fc 64be 78ae c63d
00000150: 9269 4a3d de75 cf3d 5eb7 cbbd 82e4 ad3d
00000160: 1a89 0dbd 4c0e 8a3d 70c4 f13c 481a 4d3e
00000170: 39a6 dc3d 8cdf c03d 28dc acbc 9ade cc3d
00000180: 107f abbd e7f5 f23c 105e 46bd a11f e7bd
00000190: 8788 8e3d 23c5 9d3d d280 0f3e 359a 6cbc
000001a0: 04be 363d c6ae 11be 686a 3cbe c1c5 dabc
000001b0: b712 203e 0472 b8bd 56a5 2b3e de80 773d
000001c0: 5196 03bd 2748 0bbe 7a43 133e 90ba f7bd
000001d0: 0b07 083d d641 24be 140f c4bd 6135 cf3d
000001e0: d495 353e 9964 4bbd c9c2 f53d 2ca1 b7bd
000001f0: 08f8 db3d 908f 98bd 9d14 13bd 8ddc a63d
00000200: 871e 55bd 2954 50bd b54f ea3c 8a75 753d
00000210: c529 923c 573c 25be 8c35 07be 396b 053c
00000220: 542e 213d d2aa 82bc 13bb 19be 842a f43c
00000230: 678f 18bd 9e60 19be db18 43be 2000 98bd
00000240: 603c 49be 2de5 61bd f0eb f2b9 4562 5cbe
00000250: 2e27 513e 8d59 a63d e9c1 a4bd 2b1e b2bd
00000260: 19eb d23d 5673 44be 56f0 e9bd d85b 8f3d
00000270: 96e1 29be 30de 903d 5e83 373d 060b ca3d
00000280: 107e dfbd 23e9 16bd 0aea 403c 103f 0bbe
00000290: cca0 bb3b 6fb8 ce3d 3fd7 29be f3fa d03d
000002a0: f207 c2bd 2e27 dabb 9199 d13d 4f98 ea3d
000002b0: 3e6c f73c 3df5 4d3e 635a 31be 7111 1b3e
000002c0: bea9 c33d 67a4 0f3e f34a d6bd 5326 53bd
000002d0: 3004 903d edc6 38be d1ea 02be 5447 c2bc
000002e0: 1c77 9fbd b9a1 80bd 9435 673c 9166 b3bd
000002f0: 62f9 2c3e 59d5 54be a5ac 303e dc25 483c
00000300: 0194 533d 05b8 c7bd 9a8e 46be 9f65 e03d
00000310: d7f9 eb3d 4ac2 f5bd 9f17 763d bb7a 383d
00000320: 1320 d6bd a1d5 ae3d 019e 3abd 6cba 88bd
00000330: 7da5 cc3d 8661 d2bc e6bd ed3d 2f79 74bd
00000340: b3cb 6ebd 0fbb 59be 530a b1bc 26dc 253e
00000350: c7e2 f7bd 1377 1f3e 5c41 07be acd1 b43d
00000360: 0f58 373d 3694 343e f278 43be 8d3c 2f3d
00000370: 62a2 3c3d 6d1e fabd 1231 babd 57cd 4fbd
00000380: 626e 1ebe 96e8 f6bc e64a d4bd 6ab6 e13d
00000390: 3c46 0bbd 9522 3abe 2725 9dbd a23e c33d
000003a0: 692c 8d3d 15f4 bebd dc2a b73d ab6b 4abe
000003b0: 833c bcbd b0fa 763c ec46 eebc d2d6 27be
000003c0: b050 06be 94c4 d13d 9ee9 e7bd 6e96 58bb
000003d0: 3ded 4abe 07b8 50bd ad2a 94bd cd87 90bc
000003e0: 672d 833d 2a72 833d 011e 26be 668c 24be
000003f0: 5440 c3bd f6b6 e43d 5e98 723b 6f0a b6bc
-0.057369698 0.15834807 -0.0993924 -0.14971778 -0.05075128 0.07169179 0.22695328 -0.017480588
0.044930074 -0.03357122 0.06042866 0.15028399 -0.06878444 0.042239558 0.04007854 -0.121004015
-0.15621391 0.13298373 0.11239272 0.04583297 0.007762557 0.10092084 0.14865121 0.008808233
-0.157545 0.071227 -0.06096826 -0.055043705 0.023692861 0.10832492 0.12125987 -0.008982605
-0.11865307 0.14867686 -0.036445238 0.12932579 0.14174671 0.15342468 0.12936814 0.056657452
-0.11132809 -0.018292403 -0.12879145 0.16927046 -0.15223145 0.17505068 -0.16119416 0.18654118
0.15606509 0.109875575 -0.07541217 -0.10621001 0.09619179 0.16647369 -0.07606049 0.033258308
-0.1319261 -0.14144611 0.11743399 0.02009628 0.03299567 -0.018012274 -0.08223745 0.13073044
0.101900995 -0.19602042 0.006520838 0.041362785 -0.15078776 -0.18664537 -0.08330727 0.07002398
-0.009835248 0.0064260904 0.10519996 -0.16471459 0.030994233 0.059791114 -0.09342775 -0.018741947
-0.0876674 0.107334845 -0.22361834 0.09701246 0.049417086 0.10129903 -0.09947084 0.0849085
-0.03455458 0.06741008 0.029512614 0.20029557 0.10773892 0.09417638 -0.021101072 0.100033954
-0.083738446 0.029658271 -0.04842955 -0.112853296 0.06959634 0.077036165 0.14013985 -0.014441063
0.044614807 -0.14226827 -0.18399966 -0.026705625 0.15632139 -0.09006122 0.1676229 0.06042563
-0.032125775 -0.13601743 0.14381209 -0.12096131 0.03320984 -0.1604074 -0.095731884 0.10117603
0.17732936 -0.049656484 0.12000043 -0.08966288 0.107406676 -0.074492574 -0.03590833 0.081475355
-0.052031066 -0.05086151 0.02860246 0.059926547 0.017842183 -0.16136299 -0.1320402 0.00814324
0.039350823 -0.015950594 -0.1501277 0.02980543 -0.037246134 -0.14978263 -0.1905245 -0.07421899
-0.19651937 -0.0551502 -0.00046333624 -0.21521862 0.20425102 0.08122549 -0.08044798 -0.0869716
0.102987476 -0.19184622 -0.114227936 0.0699994 -0.1658996 0.07073629 0.044803016 0.09865384
-0.109127164 -0.03684343 0.011774549 -0.13598275 0.0057259556 0.10093772 -0.16586016 0.10204115
-0.09474172 -0.0066575026 0.102343686 0.11454832 0.030202981 0.20113082 -0.17319636 0.15143372
0.0955386 0.14027558 -0.10463514 -0.05155022 0.07032049 -0.18044634 -0.12784888 -0.023715653
-0.0778639 -0.06280846 0.014111895 -0.08759797 0.16892007 -0.2078451 0.17253359 0.012216058
0.05165482 -0.09751896 -0.19390336 0.10956883 0.115222625 -0.11999948 0.06008112 0.04503892
-0.104553364 0.0853684 -0.04556084 -0.06676182 0.09992502 -0.025681268 0.11608486 -0.059685882
-0.05829973 -0.21262763 -0.021611368 0.16197261 -0.12103801 0.15572767 -0.13208526 0.08829054
0.044761714 0.17634663 -0.19089106 0.042782355 0.046053298 -0.122128345 -0.09091391 -0.050732937
-0.15471795 -0.030140202 -0.10365848 0.11021121 -0.034002528 -0.18177254 -0.07673102 0.09533431
0.06893236 -0.09323899 0.08943722 -0.19767635 -0.09191229 0.015074417 -0.029086553 -0.16390541
-0.13116717 0.102425724 -0.11323856 -0.0033048647 -0.19817062 -0.050956752 -0.07234702 -0.01764288
0.06405144 0.064182594 -0.16222383 -0.16069183 -0.09533754 0.111677095 0.0037017087 -0.022221772

gru.weight_hh_l0 f4 [96, 32]
00000000: c04b 49bd b438 f43d f874 043e 9148 893d
00000010: fdb6 0cbd e295 8e3d d822 bebc d9f5 f1bd
00000020: 6b2c 4e3d 0205 c7bc dfb1 8b3d 0011 663d
00000030: 2bc5 343e 09df 053e 721d f73b 962f c2bc
00000040: 70cd 4a3a 1d91 553b 885d fbbd 206a fa3d
00000050: d82d 423e 05f9 bbbd 9b61 66bc acd7 18be
00000060: 4702 023e cfc1 533b 0d3e 1dbe cea2 0a3e
00000070: 1a25 ecbd 596f 8f3d a20f f63d 9e02 4c3d
00000080: 6c0a 723d 1c36 ddbc cb34 c83d 006a 08bd
00000090: 32a3 a23d d2ef d23d 4eb5 e4bd 8966 bd3d
000000a0: b9e2 f4bb 84ef 473e da4e ffbd 422e 153e
000000b0: 6dde cd3d 288d a93d d23a 22bd d7ec ef3d
000000c0: 7b74 42be f26a 173e 90e0 29ba 9664 4e3e
000000d0: d71d 7b3d 51ba bc3d 2577 513e bf3b 1b3e
000000e0: 20da b93d 2b9b 50bd bac2 f2bd ae3b eabd
000000f0: 3a0e 1cbe 16ca 63bc dfcb 143e 298b 853d
00000100: 3f6e 7fbd 64f5 84bd 84c4 fd3d bccb edbc
00000110: 6473 30be de00 f73d 82de fdbd e212 f7bd
00000120: 82a3 48bd 59d3 a33d 802d c439 fa39 f33d
00000130: 29cd ab3c 0e5c 8b3d 70bf c03b d38b 343e
00000140: b36f 323e 5f90 21be 35e7 29bd 370a e7bb
00000150: 8589 d73d 1aa5 2dbe 0492 b93d 2c69 65bd
00000160: fa88 183b f7d7 0abe 1860 3cbd 3ac4 eabd
00000170: 4cfa 163e 069c 323d 5f8c 373d 5852 a3bd
00000180: b832 ec3c 82f1 babd 26a7 d53d 1a15 4c3e
00000190: ad47 14be 9943 48be ecf1 1d3e 8ad1 4dbc
000001a0: 15b0 1e3e 1217 58bd 2c9c ecbd 18ad 673c
000001b0: e5d9 563d 933d 343d 53e4 08be 9904 433d
000001c0: 8762 1abe 7dfe 2a3e 6b98 07be dc25 8fbd
000001d0: 12b6 95bd 222f 04bc 3f72 c0bd 2d10 08be
000001e0: 6bb2 d5bd 3b62 a73c 8ced 1ebe a28d 37be
000001f0: 8d51 bdbd 9635 543d 4cf4 cdbd d06b 98bd
00000200: a6e2 bd3d 21aa 41bd 2f16 e83d 8aac 103e
00000210: bb9f 1bbe 2db1 5e3c 9c8f d13d c7af af3d
00000220: 7943 a73b 5dbd a53d 10e3 933d b524 87bd
00000230: 7401 00bd d22d a33d efaa 813d 73b9 163e
00000240: 52b7 30bd 5130 37bd f096 3e3e c04b 84bc
00000250: 7149 3fbd d743 ecbd 82e3 4c3d 41cd f53d
00000260: f7a1 da3d 2285 343d 53d0 803d a722 123e
00000270: 1586 3abe f1b1 16be bfb7 ff3d a9cf 52be
00000280: 7436 cc3d 15d4 343c a098 2ebb 1e14 b0bd
00000290: f7a7 29be d2b8 023e 60bd 5ebe 51f9 833d
000002a0: a3ac 08be c444 213d dba4 13bd 8226 93bd
000002b0: 3a04 30bd adb1 973c 509c 0fbe 2930 093e
000002c0: 7af5 0abd 1e1c e93d f1ce 24be 6957 d03c
000002d0: 596d a8bd 1e34 cbbc dd8a eb3d 7eab 3e3e
000002e0: daee d33d 32fb a33d c777 85bd 963a 563b
000002f0: 7542 e0bd 32c5 90bd a1f3 fe3d 02a9 e63d
00000300: 9ff5 853d 2039 c3bc 5e2a 7b3d 53f3 2f3e
00000310: 2edc cbbd 37c3 8abd 8cba 4c3d 8a35 2abe
00000320: adb2 0abe b898 253d 4aa4 8fbd 2d7a b13d
00000330: fe79 0dbc f556 b1bd 3509 a93d 84ad 79bd
00000340: dc0d b13c e0ff ef3d fa45 3a3d 00ef 233e
00000350: 36a3 323d 4bc4 083e b922 053e 51eb b23d
00000360: 5815 b0bd 9915 09bd 7d77 893d 340f b03d
00000370: e347 393e 6e10 043d 9ae6 5b3c abbc 2f3e
00000380: 1dbf cf3d d8ee 803d f6ee 143d 78e4 bdbd
00000390: 706c 12be ba98 b9bd e668 873d 9e95 8e3d
000003a0: c9d1 b5ba 9616 483d 1d12 c63d 65f2 c23d
000003b0: 03d2 28be a471 113e 0db3 903c 9e3b 74bd
000003c0: aa56 0ebe 8167 ad3d 6098 dabd bf33 a53d
000003d0: 689e 24be 7aee cfbd c049 1d3e 897c 0e3e
000003e0: 44eb 1e3e 4eba 6abd ab37 d63b 7255 0a3e
000003f0: f4aa 19bd 000b c8bd efe7 113d 53b6 583d
-0.049144506 0.11924878 0.12935245 0.06703294 -0.0343542 0.06962182 -0.023209974 -0.1181447
0.05033533 -0.02429438 0.068210356 0.056168556 0.17653339 0.13073362 0.007541352 -0.023704331
0.0007736301 0.0032587715 -0.12273699 0.12227273 0.189628 -0.09178356 -0.014061357 -0.14926022
0.12696181 0.0032311564 -0.15355702 0.13538668 -0.11530514 0.0700366 0.120147005 0.049807183
0.05909197 -0.02700334 0.097756945 -0.033304214 0.07941283 0.10299648 -0.111673936 0.09248073
-0.0074733165 0.19524962 -0.124662116 0.14568427 0.1005219 0.082788765 -0.039606877 0.117150955
-0.18989746 0.1478689 -0.0006480301 0.20155558 0.061307754 0.092152245 0.20455606 0.1515951
0.09074807 -0.05092923 -0.118535474 -0.11437164 -0.15239802 -0.0139031615 0.14530896 0.06520683
-0.062361 -0.06492117 0.12390998 -0.029027812 -0.17231518 0.12060712 -0.123959556 -0.120641485
-0.04898406 0.07999296 0.00037417933 0.118762925 0.020971851 0.068046674 0.005882196 0.17631464
0.17425422 -0.1577773 -0.04148026 -0.0070507783 0.10524277 -0.16957512 0.090610534 -0.056008503
0.0023275004 -0.13558947 -0.04599008 -0.114632085 0.14743918 0.043605827 0.044811603 -0.0797469
0.028832778 -0.09128095 0.10432272 0.19929925 -0.14480467 -0.19557036 0.15424317 -0.012562165
0.15496857 -0.052756377 -0.11553225 0.01414039 0.052453894 0.044004034 -0.13368349 0.047611807
-0.15076648 0.16698642 -0.13241737 -0.06989643 -0.07310118 -0.008067878 -0.09396791 -0.1328742
-0.10434421 0.020432582 -0.15520304 -0.17925122 -0.0924407 0.051808916 -0.100563616 -0.074424386
0.092717454 -0.04728139 0.11332356 0.14128318 -0.15197651 0.013592047 0.102324694 0.08578449
0.005104479 0.08092759 0.07221043 -0.06598798 -0.031251386 0.07967724 0.06331431 0.14719181
-0.043143578 -0.044723812 0.18612266 -0.016149402 -0.0467009 -0.11536377 0.050021656 0.1200204
0.106754236 0.044072278 0.06289735 0.14271031 -0.1821521 -0.14716317 0.12486219 -0.20587029
0.099713236 0.011036892 -0.0026641265 -0.08597587 -0.1656798 0.12765816 -0.21751928 0.06444038
-0.13347106 0.03937222 -0.03604589 -0.07185079 -0.04297278 0.01851734 -0.14024472 0.13397278
-0.03392551 0.11382316 -0.16094567 0.025432305 -0.082239814 -0.024805125 0.115010954 0.18620107
0.10348292 0.08006896 -0.06516986 0.0032688729 -0.10950176 -0.07068862 0.12448812 0.112627044
0.06540989 -0.02383095 0.0613197 0.17182665 -0.09954105 -0.067755155 0.049982592 -0.16621986
-0.13544722 0.040428847 -0.070137575 0.08665881 -0.008635042 -0.08659164 0.08253709 -0.060956493
0.021613054 0.11718726 0.04547689 0.1600914 0.04361268 0.1335613 0.13001527 0.08736289
-0.08597821 -0.033467863 0.06712244 0.0859665 0.18093829 0.03224223 0.013421679 0.17161815
0.10143874 0.06295556 0.036360703 -0.092720926 -0.14299178 -0.090623334 0.06611805 0.06962131
-0.0013871725 0.048849665 0.096714236 0.09518889 -0.16486363 0.14203507 0.017663503 -0.059627168
-0.13900247 0.084670074 -0.106735945 0.080665104 -0.16076052 -0.10152908 0.15360165 0.13914694
0.15519434 -0.05730658 0.006537398 0.13509157 -0.03751655 -0.09767723 0.03562158 0.052908253

gru.bias_ih_l0 f4 [96]
00000000: 310a 16be 4800 98bd 8700 d93b 579c a53d
00000010: 7d5a a5bc b191 1b3e 85e7 00be d256 2b3d
00000020: fd91 cf3d 7958 de3d 71f0 3e3d a2fb 3c3c
00000030: c3ad 2b3d 4cf7 79bd 4a9f 16be d682 27be
00000040: 6c92 373e 7a33 32be 68a4 073e 4b1a c43d
00000050: 853c 36be fb62 85bd c2a9 a33b 50f6 473e
00000060: 141a 193d 76cf 1a3d bc44 eabd 0574 b33d
00000070: 9009 5d3d bc08 f33c 4cb3 8abd 0112 383e
00000080: e630 d03b 2637 a43c 6861 a83d 146e dabc
00000090: eee8 9b3d b818 e93c eaf3 343e a03e 40b9
000000a0: 07bb 01be 02fb e1bb 1446 193e 7165 c43d
000000b0: b0e7 113e aebe 88bd 6aee c73c 4161 48be
000000c0: ecb6 1c3c 0169 0abc 26b7 d63c fa84 9f3d
000000d0: d72e ec3d ffef 83bd 5dfe d7bd 0e2e 113d
000000e0: d916 0fbd 0162 1dbe 9d33 b63d 804b bebd
000000f0: 641c db3d 7cfc ff3d 4856 a53d f82b e1bc
00000100: cfef c1bd 16cc 113e d394 a7bc 0b25 28be
00000110: 818b cabd 7671 1e3d 7002 f9bd 6d28 e43d
00000120: fee2 d7bc 50d6 aebd de46 c13d 967a c63d
00000130: 01af 053e 6521 06be 29ca 8dba 90f7 dc3d
00000140: a13b f13d 75b1 0e3c a250 efbd cf5d 37be
00000150: e467 d53d cc81 16be e4e8 2ebd 0560 c33d
00000160: ffe3 27bd 325d 8b3d d04a af3d 7e7e 783c
00000170: 7500 e83d 98c9 123e 6acb 2c3e d580 6b3d
-0.14652325 -0.07421929 0.0066223773 0.0808646 -0.02018475 0.15192296 -0.12588318 0.041830845
0.10135267 0.108567186 0.04661602 0.011534603 0.04191376 -0.061026856 -0.14709201 -0.16358504
0.1792695 -0.17402449 0.1324631 0.095753275 -0.17796524 -0.0651302 0.004994602 0.19527555
0.037378386 0.037795506 -0.11438891 0.08762363 0.053964198 0.02966725 -0.067724794 0.17975618
0.0063534854 0.020045828 0.08221704 -0.026663817 0.07612787 0.02845417 0.17671171 -0.00018333877
-0.12669002 -0.0068963775 0.14968139 0.09589661 0.14248538 -0.06676994 0.024405677 -0.1956835
0.009565096 -0.008447886 0.026210379 0.07789035 0.115323715 -0.0644226 -0.10546563 0.03544431
-0.0349339 -0.15369417 0.08896563 -0.09291744 0.106987745 0.124993294 0.080730975 -0.027486786
-0.09469568 0.14238009 -0.020456707 -0.16420381 -0.098898895 0.038682424 -0.12158668 0.11140523
-0.026353355 -0.085369706 0.09437345 0.0969135 0.1305504 -0.13098677 -0.0010817695 0.10789406
0.117789514 0.008709301 -0.11685301 -0.17906879 0.10420206 -0.14697951 -0.04270257 0.09539799
-0.04098892 0.06804885 0.08559191 0.015166877 0.11328212 0.14334714 0.16874471 0.05749591

gru.bias_hh_l0 f4 [96]
00000000: 61ad c9bd 49eb c2bd e8dd bb3c b3f1 d63d
00000010: c2c7 9b3d f221 09be c972 0f3c 1ddd d2bd
00000020: 2ca8 4a3e 840e d43d 0249 e53c bd63 19bb
00000030: b3f1 debd e8ee 373e a167 54be a02b 643d
00000040: 6605 1bbe 2867 843b 48d8 29be 31cc e3bd
00000050: b34f b7bd a9c5 103e 813f ef3c 8d8d 93bd
00000060: d5f9 ab3d beeb 3dbe b021 2abe 715d 943d
00000070: d6aa 953d f375 1c3e b4ad 1f3e 1bbc 933d
00000080: ab79 3d3d 9cc2 09be 0253 e8bd b0bc 4e3d
00000090: ff10 d63c 6a7b 923d 8386 6a3d 712a bbbd
000000a0: a4a5 0ebe 1c56 91bd 1eac 22be 7939 7dbd
000000b0: 4347 543d d289 0c3e 8f42 28be a95a dc3d
000000c0: f3cc 22be a13f b5bd 4bdc a2bc 8183 a5bc
000000d0: 04b9 173e e045 e43d 69a4 193d cc65 45bd
000000e0: e258 173c 4490 8ebd fa1c 0f3e b340 6cbc
000000f0: ec3c 96bc 933b 35be 0e65 5b3d e0db 20be
00000100: e4d6 6a3d 24cf 043e 85a8 943d 3db3 c0bd
00000110: 72ba 04be 73b9 08be 4426 5f3d 61b5 063e
00000120: 601c ae3d 81c5 09be 503d 333d 091f 82bc
00000130: c4a3 af3c d824 14bc a9dc 60bd ca42 87bd
00000140: 450d bd3b 4d3f f93c fc33 bcbc ed18 5cbd
00000150: 5b37 0f3e cf8b ccbd 7135 6b3d b2ad 8fbc
00000160: f353 a53d 8bbc 29bd 49b9 aa3d dfaa 143e
00000170: 9f21 003e fb03 493e e621 293e 5a4f 24be
-0.098475225 -0.09517533 0.022932962 0.10495319 0.0760646 -0.13391855 0.008755394 -0.1029608
0.19790715 0.10354331 0.027988914 -0.0023405396 -0.10885944 0.17962229 -0.20742656 0.055705667
-0.15138778 0.0040406175 -0.16586411 -0.11122931 -0.08950748 0.14137901 0.029205086 -0.07204733
0.08397261 -0.1854696 -0.16614413 0.07244385 0.07307975 0.15279369 0.15593606 0.07213613
0.04625861 -0.13453144 -0.113439575 0.050472915 0.026131151 0.071524456 0.057257187 -0.091389544
-0.13930374 -0.07096502 -0.1588597 -0.06182239 0.051825773 0.1372445 -0.1643164 0.107594796
-0.15898494 -0.08850027 -0.019880434 -0.020204308 0.14816672 0.1114614 0.03751031 -0.048192784
0.0092375 -0.0696111 0.13975897 -0.014419722 -0.018339597 -0.17698507 0.05356317 -0.15708876
0.057333842 0.12969643 0.07258705 -0.09409187 -0.12961748 -0.13351993 0.054479852 0.13155128
0.08501506 -0.13454248 0.043759644 -0.01588394 0.021440394 -0.009041987 -0.054897938 -0.06604536
0.005769404 0.030425692 -0.022974007 -0.05373471 0.1398596 -0.09987604 0.057424013 -0.017538879
0.08072653 -0.041439574 0.083361216 0.14518307 0.12512825 0.19630425 0.16516837 -0.16045895

fc.weight f4 [2, 32]
00000000: fec2 413c 46e4 cd3c e72d 79bc 5587 563e
00000010: c531 38bd 4b92 223e 5704 593d b516 033e
00000020: 61bc d2bd 7865 c7bd e4b8 0a3e 8365 333e
00000030: bb86 623d eee7 94bd 6508 3e3e c6ac ddbd
00000040: fbb1 1c3d 5263 d5bd de99 383e 5c2b 063e
00000050: af75 133e f0d8 1bbd 7af0 d83d b6c4 9b3c
00000060: e1bd cfbd 55a2 dabb 9c6e bdbd eaae 603d
00000070: 1cfc 233d ca37 b0bd 1c24 05bd 2cdf bc3d
00000080: 5de2 c93d 60b0 cabd 77b0 5cbc 6677 bebd
00000090: 82cd e93d 4ece b5bc cc0c ba3a e70a 49bd
000000a0: c582 9ebc 0aaa ecbd dbb0 66bd b648 fcbc
000000b0: 61dc a3bd 0ab2 b0bc df2f 033e bfbf 1c3e
000000c0: e365 1a3e 770b 55bd 4bff fb3d 653d dbbd
000000d0: fbb9 bf3d ca5c 30be 1516 21be 7ce1 22bd
000000e0: 0b5c cc3d 206b 0ebe cef1 ba3d 21b9 f4bd
000000f0: 2ed0 113e 5428 6bbb 3822 353e 3730 c0bd
0.011826275 0.025133263 -0.015208698 0.20950063 -0.04496934 0.15876119 0.052982654 0.12801631
-0.10289837 -0.097361505 0.13547093 0.17519192 0.05530427 -0.072707996 0.1855789 -0.108239695
0.038255673 -0.104193345 0.18027446 0.13102478 0.14400361 -0.038048685 0.10592742 0.019014698
-0.101436384 -0.0066721835 -0.09249613 0.05485431 0.040035352 -0.08604391 -0.03250514 0.09222254
0.098576285 -0.09896922 -0.013469807 -0.09300117 0.11416151 -0.0221931 0.0014194488 -0.049082663
-0.019349465 -0.1155587 -0.056321006 -0.03079639 -0.08001018 -0.02156927 0.1281123 0.1530752
0.15077929 -0.052012887 0.12304553 -0.107050695 0.09361645 -0.17222896 -0.1573108 -0.03976582
0.09978493 -0.13908052 0.09128152 -0.11949373 0.1423957 -0.0035882192 0.17688835 -0.09384196

fc.bias f4 [2]
00000000: fc7a 993d 2ce7 a73c
0.074941605 0.020495974
