models/name_rnn_quick.pth (torch, 23980 bytes, 7 tensors)

embed.weight f4 [15, 16]
00000000: 0000 0000 0000 0000 0000 0000 0000 0000
00000010: 0000 0000 0000 0000 0000 0000 0000 0000
00000020: 0000 0000 0000 0000 0000 0000 0000 0000
00000030: 0000 0000 0000 0000 0000 0000 0000 0000
00000040: f583 c13f c09d aebf fc97 1f3f af02 7c3f
00000050: 965b e6bf 5948 cdbf 5ccd 8dbf 32c1 b83e
00000060: 535e d8be 0d1d b83d 8d4e a33f 6ce5 ea3d
00000070: f11d 973f 0e17 ad3e e898 943f a321 88bf
00000080: 094e 95be 9b65 37bf b4a6 c7bf 816b 5b3f
00000090: 3535 153f 6c90 a5bf 423b 8dbf c0a2 813f
000000a0: 03fe 923f bec9 c6be 73fa 5dbf 878d 1f3f
000000b0: 79b7 423e c253 1c40 7929 80be adb0 9cbf
000000c0: cac9 abbc 7c91 9e3f 86d9 8abe 672c b73f
000000d0: 9901 633f bee9 8cbc aef9 06be 28a8 e0be
000000e0: 455a ccbf 6a2b 0c40 4334 c2be f4cd 0240
000000f0: 1975 643e 0c08 4b3e 9f74 53bf 0654 96be
00000100: afcb 39bf 394c 8abf a8cc 643e 3a05 dabf
00000110: 1748 643f c194 b23f c94e bebc 770d bcbf
00000120: 9467 49be b956 503f 78df 2cbd 632f 46bf
00000130: bf62 81be e4d3 59be acb2 83be 24ad 52bf
00000140: fb33 26c0 0624 10bf 8d27 27bf 1d86 eb3f
00000150: 4282 92bf de75 453f bbd5 14bf 6183 e23e
00000160: 8911 cb3e fb4e 6b3f 67b4 f8bf 914a 5cbd
00000170: f720 0fbf 5489 a9bf 0b12 803e 6efd cd3e
00000180: 14c0 b8be aa1d 18be 8130 03bf 3494 b6bf
00000190: 5667 51bf 2b4c 843e c21e 14c0 1d18 6ebf
000001a0: 182a 873e b743 d1be 611a c7bf 34da 42bf
000001b0: cd13 ec3e f9fb 6dbe 724a 58bd cbe0 083f
000001c0: ead3 1fbf d8b3 663f e60d adbf c712 16be
000001d0: 0f6d dbbe 04d0 163f b3c3 b93f c4ea 783f
000001e0: 7423 c5be ff08 bb3e b410 f13e b471 96be
000001f0: 6115 da3f 4397 5c3f 5298 473d 83d3 80bf
00000200: 5a17 f33f 43f3 373f 5b30 983e f8a5 663f
00000210: 7e45 943f 7558 493f 67a4 373f f46b c3bf
00000220: ab19 e43e 8c53 2e3f a702 95bf b5a8 0140
00000230: 235f 763e 6d1e 543e 096b ef3f f549 c8bf
00000240: af99 a23f f286 05c0 3403 573f 662c c0bf
00000250: 8d35 d2be b3c8 63bf eb13 693f 60d2 2f3f
00000260: c7ff dfbf 57ac ab3d 6a14 723e 829e 7c3f
00000270: c8ab 07c0 07e5 c2be 4601 2c3f 7741 693f
00000280: 4a66 66bf 2b4f 42bf a0d9 4bbd bae2 f3bf
00000290: 1661 a53f 8ca0 05bf c698 85be 799d e73e
000002a0: 25b6 a7be 803e 71be 175e 2140 6b6e 0ec0
000002b0: 221f 14bf 53d8 7a3e db5e a6be b3c9 c6be
000002c0: 9d6b f43f b613 93bf 89ce 0bbf eb0c b2bf
000002d0: 4a0e cfbf e872 113f b5cf 713f c4b4 a2bf
000002e0: 657a 4fbf 35e5 c73f 84cd 7dbf 581f 8dbf
000002f0: e368 593f 3774 46be 16cf 8ebe ef37 413f
00000300: c76e 673f 8185 8dbe be41 50c0 0266 9a3e
00000310: f3b6 483e 8721 b03f 9735 003f 7ab7 6ebf
00000320: a75b a2bf 3fd5 9dbe 60e3 5f3f 7e22 3d3e
00000330: 290a d7bd edac 06c0 f6bd af3f c91a af3e
00000340: b1d5 dcbe 1364 a83f dfde c93f a97b a6be
00000350: c85f 5f3f 6803 8abe ebeb 2d3f a632 ab3e
00000360: 5d3a ab3e 2419 0b3f 52ab 84bf 8870 033e
00000370: b5b8 c1bf 5c9c 4a3f c6b4 4b3f 26c7 2f3f
00000380: fd61 93be fbd9 cbbe 5c74 c03f 9b46 3d3f
00000390: 9942 d13f 536c 1040 2550 83bf 30db 91bc
000003a0: 7e38 7dbf f0fc 3e3e 186b 80bf 047b 013e
000003b0: 5087 7cbd 9bf6 ad3e 2f2a 9e3f b4b6 2c40
0.0 0.0 0.0 0.0 0.0 0.0 0.0 0.0
0.0 0.0 0.0 0.0 0.0 0.0 0.0 0.0
1.5118395 -1.3641891 0.62341285 0.98441595 -1.79967 -1.6037704 -1.1078296 0.36084896
-0.42259464 0.08989916 1.2758347 0.1146954 1.1806012 0.33806652 1.1609163 -1.0635265
-0.291611 -0.7163941 -1.5597749 0.8571091 0.5828431 -1.2934699 -1.1033709 1.0127792
1.1483768 -0.38825792 -0.8671028 0.6232533 0.19015302 2.4426122 -0.2503164 -1.2241417
-0.020970244 1.2388148 -0.27119082 1.4310426 0.8867431 -0.0172013 -0.13181183 -0.43878293
-1.5965048 2.1901498 -0.37930498 2.0438204 0.22310294 0.19827288 -0.82599825 -0.2936098
-0.7257642 -1.0804511 0.22343695 -1.7032845 0.891725 1.3951646 -0.023230927 -1.4691609
-0.19668418 0.8138233 -0.042205304 -0.77416056 -0.2527065 -0.21272236 -0.25722253 -0.8229544
-2.5969226 -0.5630497 -0.65294725 1.8400303 -1.1446002 0.77132976 -0.58138627 0.4424086
0.39661816 0.9191739 -1.9430054 -0.05378205 -0.55909675 -1.3245034 0.25013766 0.40232414
-0.36084044 -0.14855066 -0.51245886 -1.4263978 -0.81798303 0.25839362 -2.3143773 -0.93005544
0.26399302 -0.40871975 -1.5554925 -0.761142 0.46108857 -0.23240651 -0.05280537 0.53468007
-0.6243273 0.9011817 -1.3519866 -0.146556 -0.42856643 0.58911157 1.4512848 0.97233224
-0.3850361 0.365303 0.47083056 -0.29383624 1.7037774 0.8616831 0.04872925 -1.0064548
1.8991501 0.7185556 0.29724392 0.90097 1.1583707 0.786506 0.71735233 -1.526732
0.44550833 0.6809623 -1.1641434 2.025922 0.2405973 0.20714732 1.870454 -1.564757
1.270315 -2.0863614 0.8398926 -1.5013549 -0.4105648 -0.8897812 0.9104602 0.6868038
-1.7499932 0.083824806 0.236406 0.98679364 -2.1198597 -0.3806536 0.67189443 0.91115516
-0.8999983 -0.7590205 -0.04976809 -1.9053566 1.2920253 -0.521981 -0.2609312 0.4523733
-0.32756153 -0.23558998 2.5213678 -2.2254894 -0.57860005 0.24496584 -0.32494244 -0.3882576
1.9095341 -1.149039 -0.5461202 -1.3910192 -1.6176236 0.5681596 0.9445756 -1.2711415
-0.81046134 1.5616823 -0.99141717 -1.102519 0.8492567 -0.1938027 -0.2789237 0.7547597
0.9040341 -0.27640918 -3.2540126 0.3015595 0.1960104 1.3760232 0.5008177 -0.93248713
-1.268422 -0.30826756 0.8745632 0.18470189 -0.10499985 -2.1043046 1.3729846 0.34200123
-0.43131784 1.315554 1.577114 -0.3251622 0.87255526 -0.26955724 0.6793811 0.3343708
0.33442965 0.54335237 -1.0364783 0.12835896 -1.5134493 0.79144835 0.79572713 0.6866325
-0.28785697 -0.39814743 1.503551 0.7393586 1.6348449 2.2566116 -1.0258833 -0.017804712
-0.98914325 0.18651175 -1.0032682 0.12644583 -0.06165248 0.33977208 1.2356623 2.6986513

gru.weight_ih_l0 f4 [96, 16]
00000000: d8f0 783e 6c47 563d da1a 0d3e 6939 e33d
00000010: 6e10 26be 38b1 3abe 8905 6f3c d68c cdbc
00000020: 8d94 5ebe fce1 4bbd a4c6 843b f08c aa3d
00000030: bc4c a1bd 5414 3d3c 9bf3 7d3e 9737 71be
00000040: 93aa 0fbe 468e 25be c9b9 b7bd f531 9f3d
00000050: 10f9 763d ad8d 34be 3ef1 79be 729c ec3d
00000060: eee4 cf3d cbc5 8bbe 383b 1d3e a456 0d3e
00000070: 49af 613d 08e1 073e 26cb 3cbd 23af fc3d
00000080: dfa6 64bd ad76 05be ea7d 1d3d cbc8 093d
00000090: 16c2 07be 259e 60bd 9d10 3ebe 62bf 2d3e
000000a0: c9f0 073e 4201 a9bc 8ec6 c03b 57dd ebbc
000000b0: af7c 47bc b8b0 513e 3469 cbbd 2eb7 0c3e
000000c0: c27b ad3d 4611 ce3d 3ba3 1d3e 9b43 78bd
000000d0: 2625 b7bd 1e17 38bc e467 35be b9e1 2d3e
000000e0: 1699 10be f3f2 153e 68c7 90ba aaab 38bd
000000f0: eeeb 0f3e ed4f c0bd 7186 9b3d e7c6 15bd
00000100: 2461 973c cd0b 04be 94f3 47be 4946 c23d
00000110: d770 c6bd 3105 50be 98dd a73d e8a3 823b
00000120: 2202 9e3d 00ce 883d 1ede 43bd 565f 6bbd
00000130: 976b 473e c56b 3e3c 1013 7fbd b4cd c5bd
00000140: d635 473d 1ee4 193c cbf6 b63d aaf6 f93d
00000150: 3448 1abd 9779 213e ef28 debd ca16 04bd
00000160: 29a4 b1bd 2aae fa3d 2c64 01be b60c cabd
00000170: 6e62 cdbd 11f8 a83d 8f1a 08bd 49ac e63d
00000180: ddf0 77be abe4 1bbe cc1d 313b 1a50 823e
00000190: 4a75 98bd b627 f1bd 2acc 203d 3a26 973e
000001a0: 3616 d53d d233 0f3d 1856 373e 1fc2 033c
000001b0: 0597 c73d f003 213a 9a96 61be 0859 593d
000001c0: 4337 09be e6e3 473d 4ef2 ff3d 1152 06be
000001d0: 1200 0b3e 7390 15be 7b0b 0cbe 6ac5 cebd
000001e0: 1899 99bd 91e1 433e 6f32 39be cefa a3bc
000001f0: 35a9 40be 5a07 8abd f4bf 06be 8d42 363e
00000200: 57f7 713e a7fe 23be 8f99 07bd 8e9f 003e
00000210: 09d7 1e3c 315e acbd db6d 89bd f087 da3d
00000220: 2436 d23d 63a2 8f3d e012 9fbd 3dd4 d5bd
00000230: 996d 3a3d ca45 683e 42e2 8b3c 7c24 a0bd
00000240: 33ae 3dbd 56a1 653b 3279 cbbc 7ae1 49bd
00000250: 22b8 dbbd 3491 5bbe 6753 353e c13b 08be
00000260: 7e84 27be 7c3e 06bd 6423 663d c143 b13d
00000270: 2109 cf3d 177f dc3c 83f8 6b3e 66fc e4bd
00000280: a09a 0c3e 6ecc 4d3d 1e31 d8bd 35b1 913d
00000290: 834d 903d ebce 28bd b0fd d0bd e2a3 efbc
000002a0: a6bc 003e e316 803b 24cf 29bd 349b a1bc
000002b0: 8866 443c 3e55 53be 0750 fabd bccf 243e
000002c0: 3883 13be 1419 94bd 5f1d 0f3e 9178 803e
000002d0: cef2 2dbd 1aed 6ebe 5093 6dbd dcc5 b33d
000002e0: c717 873d e8ab 61bd 28a8 2dbc 1989 06be
000002f0: 0095 733d e852 913d ba2e 413e 38af c53c
00000300: d5d6 2fbd bee1 9c3d 6b76 88bd 2ef0 7fbe
00000310: 381e d03d eddc e8bc d3ce 183e 15ff 2bbc
00000320: 025a 6fbd 5b75 ea3d 6ce3 80bb 2bb4 a7bd
00000330: 60b8 9b3d 38d6 f33d 1f2d b43d 781f 49bd
00000340: 4ebe 3fbe 2c07 84bd b51d de3d eb87 6ebb
00000350: e1b2 54bc e180 143e 14ba 4abc be13 82bd
00000360: 85c9 883d 8471 a8bb 053d f2bc fd66 f3bd
00000370: 7e2a ed3d b60c 1d3d d239 22bd c612 8a3d
00000380: 67d2 423c 9204 a33d ce65 e6bd 04f0 64be
00000390: f07c 173e 84cd c53d f2df 80bc b305 09be
000003a0: d467 06be 9e27 2ebd a26c 373e cad0 3d3e
000003b0: dff9 12be 9fcd e6bd 1cfe e43d b82a 9dbd
000003c0: 4056 2bbe e6c2 0d3e 509e 0cbe ec47 83bc
000003d0: cf5e 2ebe 51ad dbbd cb59 adbd c267 8e3e
000003e0: 7cb6 093e e35a bcbc 7c22 633d 2d59 00be
000003f0: 7e42 9cbd 7864 f1bc 50e8 ffbd e3a3 2abe
0.24310625 0.052314207 0.13779774 0.110949345 -0.16217205 -0.18231666 0.014588722 -0.02509157
-0.21736355 -0.049776062 0.004052 0.08327663 -0.07875964 0.011540491 0.2479996 -0.23556362
-0.14029913 -0.16167554 -0.089709826 0.077732004 0.06029612 -0.1763217 -0.24408433 0.11553277
0.10151087 -0.27299342 0.15354621 0.13802582 0.055098806 0.13269436 -0.046092175 0.12338092
-0.055823203 -0.13033552 0.03845016 0.033638757 -0.13257632 -0.05483832 -0.18561025 0.16967538
0.13275446 -0.020630483 0.0058830446 -0.028792066 -0.012175723 0.20477569 -0.09932175 0.13741753
0.084708706 0.100618884 0.15394299 -0.06061135 -0.089426324 -0.01123598 -0.17715412 0.16980638
-0.14120898 0.14643459 -0.0011045756 -0.045085587 0.14054844 -0.09390245 0.07594002 -0.03656664
0.018478937 -0.12895127 -0.19526511 0.09486062 -0.09689491 -0.2031448 0.081965625 0.0039868243
0.077152506 0.066799164 -0.04781925 -0.057463966 0.19474636 0.011622374 -0.06227404 -0.096583754
0.048635326 0.009392766 0.08933791 0.122052506 -0.037666515 0.15769039 -0.10847651 -0.032248296
-0.08673889 0.122402504 -0.12635869 -0.09865706 -0.100285396 0.0825044 -0.033228453 0.112633295
-0.24212976 -0.15223949 0.0027025817 0.25451738 -0.07444246 -0.117751524 0.039257206 0.29521352
0.10404627 0.03496153 0.17903936 0.008041888 0.097456016 0.00061422493 -0.22030106 0.053063422
-0.13399987 0.048801325 0.12497388 -0.13117243 0.13574246 -0.14605884 -0.13676254 -0.100962475
-0.074999034 0.19129016 -0.18085645 -0.020017054 -0.18814547 -0.067396834 -0.13159162 0.17798825
0.23629509 -0.16015111 -0.03310543 0.12560865 0.009694823 -0.08416403 -0.067104064 0.10670459
0.10264233 0.07013395 -0.07767272 -0.10440872 0.045514677 0.22682872 0.017075662 -0.07819459
-0.046308707 0.003503879 -0.024838064 -0.049287297 -0.1072848 -0.2144211 0.17707597 -0.13304044
-0.16359136 -0.032774433 0.056186095 0.08655501 0.10109163 0.02691607 0.23044018 -0.11180954
0.1373086 0.050243787 -0.10556243 0.07113878 0.07046034 -0.041212957 -0.10204637 -0.02925295
0.12571964 0.0039089783 -0.04145731 -0.019727327 0.011987336 -0.20637986 -0.12222295 0.1609487
-0.14405525 -0.07231346 0.13976048 0.25091985 -0.042467885 -0.23332635 -0.058001816 0.08777973
0.06596332 -0.055095583 -0.010599174 -0.13138236 0.05946827 0.07095891 0.18865481 0.024131402
-0.04292949 0.076602444 -0.066632114 -0.24993965 0.10162014 -0.028425658 0.14922647 -0.010497828
-0.058435448 0.11448165 -0.003933361 -0.08188661 0.07603526 0.11906093 0.08797669 -0.049102277
-0.18724939 -0.064466804 0.1084551 -0.0036396931 -0.012982101 0.14502288 -0.012373466 -0.06351422
0.06679062 -0.0051404852 -0.029570112 -0.11884878 0.1158037 0.0383422 -0.039605923 0.06741862
0.011890984 0.07959856 -0.112498865 -0.22357184 0.14793754 0.096583396 -0.015731785 -0.1338108
-0.13125545 -0.04251825 0.17912534 0.18536678 -0.14353131 -0.11269688 0.1118128 -0.076741636
-0.1673212 0.13843879 -0.13732266 -0.016025506 -0.17028354 -0.10726417 -0.08464392 0.27813536
0.13448519 -0.022992557 0.05545281 -0.12534018 -0.0762987 -0.029466853 -0.12495482 -0.1666408

gru.weight_hh_l0 f4 [96, 32]
00000000: a4f1 6f3d 2aa5 3a3e 1da2 f4bd 26ab 303e
00000010: d384 8bbd ff27 2b3d 55c5 77bd fc9a c03c
00000020: 894f 1b3d 607c 2c3e 527d 25be bddb 49be
00000030: 185c 6dbe 272d 113e 9bc2 dabd c1ca 6a3e
00000040: 88e0 38bc d0e7 a6bd 671d a7bd 2765 febd
00000050: cc1a 29bd 3104 d13d 6cbc 5b3e 82aa 433d
00000060: 21bb 393d 9c6a 173e 50da e1bd fc1d d23c
00000070: 6ac8 b63d 9182 ef3d 2a4c 393d 5c18 87bd
00000080: 4609 593d 6d80 433d e3a7 29be 4d1f 7cbd
00000090: a975 5b3e 569e 56bd f2d3 54bc f3c5 53bd
000000a0: 6db7 a93d 10d5 153d 259c 923d de69 f8bd
000000b0: 0d29 d73d d52e 47be 4b8d 723d 32d2 c9bd
000000c0: f59d eabd e064 afbd fbcf 02bd a2e5 dfbd
000000d0: e26b a2bd 579f 8fbd e300 68bc a13c 103e
000000e0: 69f7 123c 6fe1 093e c662 8e3b 223a 443c
000000f0: cb9a 9fbd f211 4ebb 1232 463d 9eba 90bd
00000100: 7539 4c3d 8cb4 043c 558d 383d da14 b13d
00000110: 1d71 be3d 3325 943d 4b79 e03c ba63 54bd
00000120: 4008 24be d31c 9ebd 4067 42be eaa1 5cbe
00000130: 6da1 36be fd6e b63d 0bba 803d a85b 98bd
00000140: 0e4f cebb e0e3 013e 74f6 df3c f82c ddbd
00000150: e468 edbc ec78 bcbd 9bae fc3d 2d21 3d3e
00000160: e517 463d de85 103d 15c4 1abe e8f2 063d
00000170: 16a1 e73d 4de9 d33d 5bdb 4e3d 1cf5 c63d
00000180: d94a eabc d736 ffbc 221d 633c c8fc 043e
00000190: 038e 6d3e 7271 343c 182e 39bd 3089 083b
000001a0: 5b9b 1dbd 2df0 c93c ec1d 17be c7a9 1fbe
000001b0: 6d35 07be be80 c8bd 28c7 41bd ee45 f23c
000001c0: 7cb2 b53d 42eb a0bd 6351 ea3d 691f 27be
000001d0: ac56 d73c b553 25be d90d c53d b0c6 f83d
000001e0: 870c 91bd 90cf 083e 1cef b9bc 2872 f03d
000001f0: c448 2f3e db82 313d f21e ec3d d9d5 52be
00000200: 03f4 5dbe bec9 da3c 3373 19be 8563 9ebc
00000210: 7c14 2a3b 7aee 183e fec7 233e 786d fdbd
00000220: 96dc 24bd a685 0dbe cf5a 35be 4d97 30be
00000230: 7b24 44be d443 273d 3f18 d7bd 50f7 053d
00000240: 2ef8 a33d 824b a93c 1fdd b7bd d7fb 87be
00000250: bbd7 41be dfd7 253d 38cd 3c3e 06ef 473e
00000260: c48c eabb 6006 e73d d09b 45be 4d02 64bd
00000270: 4902 a93d 7e7b 133d 376c 2a3c 1b3d f6bd
00000280: 385c 82bd 3bda 3a3c a366 803d 3f83 3b3e
00000290: e475 813e d342 213e 24fc 0d3c f8a5 4abe
000002a0: 1b68 ab3d 73c4 52bc 1867 12be ce66 303e
000002b0: c6c8 b3bc d100 bc3d b1fd 65be 0c95 8ebd
000002c0: d332 463d 2299 0c3e 5497 d93c ade8 a43d
000002d0: 44b7 1abd ad28 99bd 5e65 0fbe 2d01 e23c
000002e0: 7e58 213e 9e86 703e 9226 013e cf32 69be
000002f0: c5c5 593e 2194 323d e874 c7bd 5092 2d3d
00000300: 7ca0 c3bd 9836 0cbe d3e9 09bd 8046 d3b9
00000310: cc24 efbd 20d3 1c3c b46e 7d3e 03b9 4dbe
00000320: 9e79 11bd 3a78 5e3d 3bf4 b33c b656 0fbd
00000330: ca12 0abd 94bf 06be ee29 ff3c f72f 3b3d
00000340: 0859 b23d 7e32 003e 8a63 843d 6235 b13d
00000350: 3ca8 59be ab8b 823c dffc 44be 40fd a4bb
00000360: 2cfd aa3d 0491 ee3a 595f dc3d 05ca a4bd
00000370: 9896 223c a7eb 2cbe f8e7 1e3e 8403 ad3d
00000380: 5a32 5ebe e7dd 0cbe 092c 4a3e 4179 cebd
00000390: e654 ab3c 703c 023e 26da aabc d779 a83d
000003a0: 7c42 533d 228e dbbd fb82 343d 92be 54bc
000003b0: 51c0 013e 4af4 643d 09c8 ea3d e775 8dbc
000003c0: 6d49 90bd 1ecc 93be 0920 75be 1b52 273e
000003d0: c611 1b3d 7a2a 3cbd 8f56 e8bc 53b1 10be
000003e0: c039 a23d aa3b 193e a090 45bd ce2d 7d3d
000003f0: 9731 f63d 0f6a c0bd de34 f23c a0cd 4cbe
0.058580056 0.18227068 -0.11944983 0.17252788 -0.068124436 0.04178619 -0.060490925 0.023511402
0.037917648 0.1684432 -0.16161087 -0.1971273 -0.23179662 0.1417738 -0.10681649 0.22928907
-0.011284001 -0.081496835 -0.08159905 -0.12421637 -0.04128532 0.102058776 0.21458596 0.04777003
0.045344476 0.14786762 -0.11027968 0.025649063 0.08924945 0.116948254 0.04523865 -0.06596443
0.05298736 0.0477299 -0.1656795 -0.06155329 0.21431603 -0.052397095 -0.012989985 -0.05170245
0.08286939 0.036580145 0.071586885 -0.121295676 0.10505877 -0.19451459 0.05921678 -0.09854545
-0.11455909 -0.08564162 -0.031936627 -0.10932471 -0.07930733 -0.070128135 -0.014160368 0.14085628
0.00897012 0.13464902 0.004345271 0.011976751 -0.07793196 -0.0031443802 0.048387595 -0.070668444
0.049859483 0.008099686 0.04505666 0.08646555 0.092989184 0.07233658 0.027401587 -0.05185292
-0.16018772 -0.077203415 -0.18984699 -0.2154614 -0.17835017 0.08907888 0.06285485 -0.07439357
-0.006296045 0.12684584 0.027339198 -0.10799593 -0.02898068 -0.092027515 0.12337991 0.18469687
0.04836263 0.035283916 -0.15113862 0.032946497 0.113100216 0.10347233 0.050502162 0.0971472
-0.028600143 -0.03115408 0.013861926 0.12987053 0.23198704 0.011013376 -0.045209974 0.0020833723
-0.038478237 0.024650658 -0.14757508 -0.15592109 -0.13203974 -0.097901806 -0.04730907 0.02957436
0.08871934 -0.07857372 0.114413045 -0.16320576 0.026286446 -0.16145213 0.09621782 0.12147272
-0.070824675 0.13360429 -0.022697024 0.117405236 0.17117602 0.043337684 0.1152934 -0.20589389
-0.21675114 0.026707526 -0.14985351 -0.019334564 0.002595215 0.14934722 0.1599426 -0.12374395
-0.04024943 -0.13820514 -0.17710422 -0.17245217 -0.19154541 0.04083617 -0.105026715 0.03270656
0.08006321 0.020665888 -0.089777224 -0.26559326 -0.18929951 0.040489074 0.1843766 0.19524774
-0.007157894 0.11280513 -0.19297719 -0.055666257 0.08252389 0.036006443 0.010401777 -0.12023374
-0.063652456 0.011404569 0.062695764 0.18311785 0.25285256 0.15748148 0.008666072 -0.19789875
0.08369466 -0.01286422 -0.1429714 0.17226717 -0.021946322 0.09179843 -0.22460057 -0.06962022
0.048388314 0.1373029 0.026561417 0.08052192 -0.037772432 -0.074784614 -0.14003512 0.027588451
0.15756413 0.23488852 0.1261237 -0.22773288 0.2126685 0.043598298 -0.09739095 0.042375863
-0.09552094 -0.13692701 -0.033670258 -0.00040297583 -0.1167694 0.0095718205 0.24749261 -0.20090108
-0.035516374 0.054313876 0.021967044 -0.034994803 -0.033709325 -0.13159019 0.031147923 0.04570004
0.087083876 0.12519261 0.06464298 0.0865276 -0.21255583 0.01593574 -0.19237088 -0.0050350726
0.0834907 0.0018201177 0.107603736 -0.08046345 0.0099236 -0.16886769 0.15518177 0.08447936
-0.21698895 -0.13756524 0.1974336 -0.10081721 0.020914506 0.12718368 -0.020855974 0.08226364
0.051577076 -0.10720469 0.044070225 -0.012984889 0.12671019 0.055897035 0.11463935 -0.017268134
-0.07045255 -0.28866667 -0.23938002 0.16339915 0.037858747 -0.045938946 -0.028361587 -0.14130144
0.07921171 0.14964166 -0.04823363 0.06181126 0.12021177 -0.09395229 0.029566225 -0.20000315

gru.bias_ih_l0 f4 [96]
00000000: 3cd3 7cbd 34f5 f53b aa49 473b 5380 15be
00000010: 6fda 433e 7773 483d d900 1f3d b1f1 643e
00000020: 2b46 ab3d 2b30 62bd 1462 89bd 90fd 01be
00000030: 99cd 70bd a661 b43b c005 cfbb c842 57bd
00000040: cc22 01bd 5f58 c83d ac54 e5bc ce44 00be
00000050: 3ab8 febd a255 0bbc 8e0f b93c c31a e5bd
00000060: 0c01 b3bd 11b4 043e f55d c53d d395 703d
00000070: cc30 0ebe 36f0 18be af4f 23be 4c32 3bbe
00000080: f766 26bd 7e6a 953d a36b a33d 55bb 81bc
00000090: 25a5 113e 63f3 fbbd 28c5 2cbc 4682 ebbd
000000a0: 506b 26bd 2bad d13d f6f8 393e 77a4 003d
000000b0: 72bd 4d3e d8ce 1fbe 0d22 e3bd 8c43 ffbd
000000c0: afb5 2dbe 2539 85bd 7fdc a6bd 6133 c63d
000000d0: 5bf7 7c3d 2487 3fbd 54e2 743d 6b10 00be
000000e0: 97ef 19be ba5e aa3d c9e2 c7bd 3014 123e
000000f0: 3c51 e73d 3807 c53d ec53 26bd 2fc7 343e
00000100: 6c1e 873b 65f8 863c 2047 1e3d 1388 20be
00000110: e051 4dbd 9f3f a23d 961a 95bd b7f1 92bd
00000120: 3f70 1bbd 9a75 c63d 5c56 0bbe c744 c63d
00000130: 901e 35be 2cb6 453e 2849 8c3d 2683 d2bb
00000140: 2bbf 4d3e efbf 40bc e7f6 13be b35a 72bd
00000150: 4343 2abe 5c33 a8bd f032 933d a679 b83b
00000160: 8aba cc3d 52b8 19be 3156 3dbe 03e5 153e
00000170: 2c19 70bd 3cd7 aebd ef6d a5bd 8a1d 27be
-0.061724886 0.007506037 0.0030408897 -0.14599733 0.19126295 0.04893824 0.038819168 0.22357823
0.08362993 -0.055221718 -0.0670816 -0.12694383 -0.058789823 0.0055048047 -0.006317824 -0.052553922
-0.031527326 0.097824804 -0.027994476 -0.12526247 -0.12437482 -0.008504303 0.022590425 -0.11186745
-0.08740434 0.12959315 0.096370615 0.058736634 -0.13885802 -0.14935383 -0.15948366 -0.18280905
-0.04062554 0.072957024 0.079795144 -0.015836397 0.14223154 -0.12302282 -0.010545053 -0.11499457
-0.040629685 0.10238107 0.18161377 0.031406846 0.20091799 -0.15606248 -0.11090479 -0.124640554
-0.16963838 -0.0650504 -0.08147525 0.096777685 0.061759334 -0.04675974 0.059786156 -0.12506263
-0.15032803 0.08318849 -0.09760053 0.14265513 0.11294791 0.096205175 -0.040607378 0.17654108
0.0041234996 0.016475866 0.03864205 -0.15676908 -0.05012691 0.07922291 -0.072804615 -0.0717501
-0.037948843 0.096903995 -0.13607162 0.09681087 -0.1768744 0.19307774 0.06849891 -0.0064243255
0.20092456 -0.011764511 -0.14449655 -0.05916853 -0.16627221 -0.08212921 0.0718745 0.005629736
0.09996517 -0.15011719 -0.1848991 0.14638142 -0.058617756 -0.085371464 -0.08077609 -0.16319862

gru.bias_hh_l0 f4 [96]
00000000: 0a24 b1bd 0841 1abe 6a82 333e fffe 39bd
00000010: 1a27 993c 603b 1cbc b33d 483e 4269 033e
00000020: 5c37 df3d 3b00 10bd e21a 2f3c 1d24 d33d
00000030: e1dc 29be 46a2 993d 5716 3e3e 6a94 0e3e
00000040: b6df 8bbd f9ac 093e b0a3 493e a9e6 0a3d
00000050: 6315 d13d fbca 393e 8327 0e3e 38f6 9a3a
00000060: 6213 9b3d 14ee 4b3c fdb9 863d abf3 b7bd
00000070: 99e5 af3c bd4f 8ebc 20f1 313d 963d f53d
00000080: dcb6 bdbd 6b5e 39bd 30a5 ef3d 5827 85be
00000090: 6cf6 e6bc 861a d8bd 9e81 84be 5ce2 31be
000000a0: 22f5 39be 2f14 d8bd 3f94 f03d 8d63 3abe
000000b0: c80a 383e 75e6 1ebe b706 183d 1961 1dbd
000000c0: 8e9f 0d3e e8dc 963d ebef 743c fa0b b7bd
000000d0: 5e7d 1abc ea98 7e3d f085 6cb9 55bc 8d3b
000000e0: 5881 35be 023d a4ba 60d1 7d3d d6d3 5b3c
000000f0: a6b5 943c bd02 0b3b 785c a03d b576 91bd
00000100: c908 3ebe 4d58 133d 7739 86bd 9240 663d
00000110: 0694 f93d 6f3c 1dbe 6509 093e 82dc 473e
00000120: 3c8c ea3c 5835 96bd 7d73 e33d cdf7 40be
00000130: 47ae 1c3e 98c2 513e 47a7 f33d a4f4 0c3e
00000140: a3ca 1fbe cd26 abbd c24c 98bd 20c0 d5bd
00000150: e743 a23d 988f 59bd 7317 7f3d 0d3b 57bb
00000160: aa82 98bd b925 f93d 84b5 843d 5a55 3d3e
00000170: e750 45bd 1ed1 d43d 8f20 013e 3be8 a03d
-0.08649452 -0.1506387 0.17530218 -0.0454092 0.018695403 -0.0095356405 0.19554786 0.12833121
0.10899231 -0.03515647 0.010687562 0.103096224 -0.16588165 0.07501654 0.1856321 0.13923803
-0.06829779 0.1344489 0.19691348 0.03391138 0.10209157 0.18143837 0.1388226 0.0011822646
0.07572056 0.012446899 0.06578443 -0.08982023 0.021471785 -0.017372007 0.043442845 0.11974637
-0.09263393 -0.04525606 0.11701429 -0.2600658 -0.028193675 -0.10551934 -0.2588014 -0.17371505
-0.18159917 -0.10550725 0.11747026 -0.18202038 0.17972863 -0.155176 0.03711578 -0.038422678
0.13830397 0.07366353 0.014949779 -0.08937831 -0.009429304 0.06215755 -0.0002255661 0.0043254294
-0.17725122 -0.0012530389 0.061967254 0.013417205 0.018153023 0.002121135 0.07830137 -0.0710272
-0.18558039 0.035972882 -0.06553929 0.056213923 0.12186436 -0.15355085 0.1338249 0.19517711
0.028631322 -0.07334393 0.11106012 -0.18844528 0.15300857 0.20484388 0.1189714 0.13765198
-0.15604644 -0.0835701 -0.074365154 -0.104370356 0.079231076 -0.053115457 0.062278222 -0.0032841593
-0.07446797 0.12165398 0.06479934 0.1848959 -0.048172858 0.103914484 0.12610076 0.078567944

fc.weight f4 [2, 32]
00000000: b9da 0bbe 89f6 873d c46e 06be 9d83 003e
00000010: 3993 133e 1746 2abe 610f 8c3e ddc2 46be
00000020: 2a62 eebc 13d8 fdbd 4bb2 60be 3f1f 6cbe
00000030: 6876 58bd e013 fe3d e626 5fbe 31df 0e3e
00000040: e526 f33d 5d99 cd3d 4994 833d 4487 053e
00000050: 127f 05be 56f4 163e 1ff9 94bd 43a5 1f3e
00000060: 5ed8 f23c 1630 c3bc f88d 8f3a 9df1 26be
00000070: f2bf 7ebd 248f 8d3c b508 2ebe 9b4b c33c
00000080: d11b a23d 4e2e ee3b e900 ec3d 42cc 01be
00000090: b688 12bd ff1d e13d c9cf 10be efb3 543e
000000a0: 7bc6 76be cc20 bb3d 65f8 d7bc 00bd 283d
000000b0: 9474 1b3e 19c6 ae3d de00 973e f5fe debd
000000c0: bf22 34be 4274 46bd bb8e 91be c66c 233e
000000d0: 211f 533e 20e3 f0bd 5e33 22be 0f44 ecbd
000000e0: f554 743d 82fb a3bd 3a70 a3bd e6cc 54bc
000000f0: bb6e b53d 6d9c 393d 42cd 963d f356 033e
-0.13657655 0.0663882 -0.13128191 0.12550206 0.1441163 -0.166283 0.27355483 -0.19410272
-0.029099543 -0.123947285 -0.21943013 -0.23058794 -0.052847296 0.124061346 -0.21792182 0.13952328
0.11872653 0.10039017 0.064247675 0.13039881 -0.13036755 0.14741644 -0.072740786 0.15590386
0.029644188 -0.02382664 0.0010952344 -0.16303106 -0.062194772 0.017280169 -0.16995509 0.023839762
0.07915462 0.0072687035 0.11523611 -0.12675574 -0.03577491 0.109920494 -0.14141764 0.20771764
-0.24099152 0.09137115 -0.02636356 0.04119587 0.1518119 0.08533878 0.2949285 -0.10888473
-0.1759138 -0.048450716 -0.28429207 0.15959463 0.20617343 -0.11762071 -0.15839908 -0.11536419
0.059651334 -0.08006956 -0.0798039 -0.012988305 0.08859011 0.045315195 0.073633686 0.12826137

fc.bias f4 [2]
00000000: b05d cebd 65c7 093e
-0.10076463 0.13454969
